…
snapshot_prefix: "vgg16_faster_rcnn"
average_loss: 100
iter_size: 2
I0415 09:26:10.383499 17038 solver.cpp:81] Creating training net from train_net file: models/pascal_voc/VGG16/faster_rcnn_end2end/train.prototxt
I0415 09:26:10.384284 17038 net.cpp:58] Initializing net from parameters: 
name: "VGG_ILSVRC_16_layers"
state {
  phase: TRAIN
}
layer {
  name: "input-data"
  type: "Python"
  top: "data"
  top: "im_info"
  top: "gt_boxes"
  python_param {
    module: "roi_data_layer.layer"
    layer: "RoIDataLayer"
    param_str: "\'num_classes\': 6"
  }
}
layer {
  name: "conv1_1"
  type: "Convolution"
  bottom: "data"
  top: "conv1_1"
  param {
    lr_mult: 0
    decay_mult: 0
  }
  param {
    lr_mult: 0
    decay_mult: 0
  }
  convolution_param {
    num_output: 64
    pad: 1
    kernel_size: 3
  }
}
layer {
  name: "relu1_1"
  type: "ReLU"
  bottom: "conv1_1"
  top: "conv1_1"
}
layer {
  name: "conv1_2"
  type: "Convolution"
  bottom: "conv1_1"
  top: "conv1_2"
  param {
    lr_mult: 0
    decay_mult: 0
  }
  param {
    lr_mult: 0
    decay_mult: 0
  }
  convolution_param {
    num_output: 64
    pad: 1
    kernel_size: 3
  }
}
layer {
  name: "relu1_2"
  type: "ReLU"
  bottom: "conv1_2"
  top: "conv1_2"
}
layer {
  name: "pool1"
  type: "Pooling"
  bottom: "conv1_2"
  top: "pool1"
  pooling_param {
    pool: MAX
    kernel_size: 2
    stride: 2
  }
}
layer {
  name: "conv2_1"
  type: "Convolution"
  bottom: "pool1"
  top: "conv2_1"
  param {
    lr_mult: 0
    decay_mult: 0
  }
  param {
    lr_mult: 0
    decay_mult: 0
  }
  convolution_param {
    num_output: 128
    pad: 1
    kernel_size: 3
  }
}
layer {
  name: "relu2_1"
  type: "ReLU"
  bottom: "conv2_1"
  top: "conv2_1"
}
layer {
  name: "conv2_2"
  type: "Convolution"
  bottom: "conv2_1"
  top: "conv2_2"
  param {
    lr_mult: 0
    decay_mult: 0
  }
  param {
    lr_mult: 0
    decay_mult: 0
  }
  convolution_param {
    num_output: 128
    pad: 1
    kernel_size: 3
  }
}
layer {
  name: "relu2_2"
  type: "ReLU"
  bottom: "conv2_2"
  top: "conv2_2"
}
layer {
  name: "pool2"
  type: "Pooling"
  bottom: "conv2_2"
  top: "pool2"
  pooling_param {
    pool: MAX
    kernel_size: 2
    stride: 2
  }
}
layer {
  name: "conv3_1"
  type: "Convolution"
  bottom: "pool2"
  top: "conv3_1"
  param {
    lr_mult: 1
  }
  param {
    lr_mult: 2
  }
  convolution_param {
    num_output: 256
    pad: 1
    kernel_size: 3
  }
}
layer {
  name: "relu3_1"
  type: "ReLU"
  bottom: "conv3_1"
  top: "conv3_1"
}
layer {
  name: "conv3_2"
  type: "Convolution"
  bottom: "conv3_1"
  top: "conv3_2"
  param {
    lr_mult: 1
  }
  param {
    lr_mult: 2
  }
  convolution_param {
    num_output: 256
    pad: 1
    kernel_size: 3
  }
}
layer {
  name: "relu3_2"
  type: "ReLU"
  bottom: "conv3_2"
  top: "conv3_2"
}
layer {
  name: "conv3_3"
  type: "Convolution"
  bottom: "conv3_2"
  top: "conv3_3"
  param {
    lr_mult: 1
  }
  param {
    lr_mult: 2
  }
  convolution_param {
    num_output: 256
    pad: 1
    kernel_size: 3
  }
}
layer {
  name: "relu3_3"
  type: "ReLU"
  bottom: "conv3_3"
  top: "conv3_3"
}
layer {
  name: "pool3"
  type: "Pooling"
  bottom: "conv3_3"
  top: "pool3"
  pooling_param {
    pool: MAX
    kernel_size: 2
    stride: 2
  }
}
layer {
  name: "conv4_1"
  type: "Convolution"
  bottom: "pool3"
  top: "conv4_1"
  param {
    lr_mult: 1
  }
  param {
    lr_mult: 2
  }
  convolution_param {
    num_output: 512
    pad: 1
    kernel_size: 3
  }
}
layer {
  name: "relu4_1"
  type: "ReLU"
  bottom: "conv4_1"
  top: "conv4_1"
}
layer {
  name: "conv4_2"
  type: "Convolution"
  bottom: "conv4_1"
  top: "conv4_2"
  param {
    lr_mult: 1
  }
  param {
    lr_mult: 2
  }
  convolution_param {
    num_output: 512
    pad: 1
    kernel_size: 3
  }
}
layer {
  name: "relu4_2"
  type: "ReLU"
  bottom: "conv4_2"
  top: "conv4_2"
}
layer {
  name: "conv4_3"
  type: "Convolution"
  bottom: "conv4_2"
  top: "conv4_3"
  param {
    lr_mult: 1
  }
  param {
    lr_mult: 2
  }
  convolution_param {
    num_output: 512
    pad: 1
    kernel_size: 3
  }
}
layer {
  name: "relu4_3"
  type: "ReLU"
  bottom: "conv4_3"
  top: "conv4_3"
}
layer {
  name: "pool4"
  type: "Pooling"
  bottom: "conv4_3"
  top: "pool4"
  pooling_param {
    pool: MAX
    kernel_size: 2
    stride: 2
  }
}
layer {
  name: "conv5_1"
  type: "Convolution"
  bottom: "pool4"
  top: "conv5_1"
  param {
    lr_mult: 1
  }
  param {
    lr_mult: 2
  }
  convolution_param {
    num_output: 512
    pad: 1
    kernel_size: 3
  }
}
layer {
  name: "relu5_1"
  type: "ReLU"
  bottom: "conv5_1"
  top: "conv5_1"
}
layer {
  name: "conv5_2"
  type: "Convolution"
  bottom: "conv5_1"
  top: "conv5_2"
  param {
    lr_mult: 1
  }
  param {
    lr_mult: 2
  }
  convolution_param {
    num_output: 512
    pad: 1
    kernel_size: 3
  }
}
layer {
  name: "relu5_2"
  type: "ReLU"
  bottom: "conv5_2"
  top: "conv5_2"
}
layer {
  name: "conv5_3"
  type: "Convolution"
  bottom: "conv5_2"
  top: "conv5_3"
  param {
    lr_mult: 1
  }
  param {
    lr_mult: 2
  }
  convolution_param {
    num_output: 512
    pad: 1
    kernel_size: 3
  }
}
layer {
  name: "relu5_3"
  type: "ReLU"
  bottom: "conv5_3"
  top: "conv5_3"
}
layer {
  name: "rpn_conv/3x3"
  type: "Convolution"
  bottom: "conv5_3"
  top: "rpn/output"
  param {
    lr_mult: 1
  }
  param {
    lr_mult: 2
  }
  convolution_param {
    num_output: 512
    pad: 1
    kernel_size: 3
    stride: 1
    weight_filler {
      type: "gaussian"
      std: 0.01
    }
    bias_filler {
      type: "constant"
      value: 0
    }
  }
}
layer {
  name: "rpn_relu/3x3"
  type: "ReLU"
  bottom: "rpn/output"
  top: "rpn/output"
}
layer {
  name: "rpn_cls_score"
  type: "Convolution"
  bottom: "rpn/output"
  top: "rpn_cls_score"
  param {
    lr_mult: 1
  }
  param {
    lr_mult: 2
  }
  convolution_param {
    num_output: 18
    pad: 0
    kernel_size: 1
    stride: 1
    weight_filler {
      type: "gaussian"
      std: 0.01
    }
    bias_filler {
      type: "constant"
      value: 0
    }
  }
}
layer {
  name: "rpn_bbox_pred"
  type: "Convolution"
  bottom: "rpn/output"
  top: "rpn_bbox_pred"
  param {
    lr_mult: 1
  }
  param {
    lr_mult: 2
  }
  convolution_param {
    num_output: 36
    pad: 0
    kernel_size: 1
    stride: 1
    weight_filler {
      type: "gaussian"
      std: 0.01
    }
    bias_filler {
      type: "constant"
      value: 0
    }
  }
}
layer {
  name: "rpn_cls_score_reshape"
  type: "Reshape"
  bottom: "rpn_cls_score"
  top: "rpn_cls_score_reshape"
  reshape_param {
    shape {
      dim: 0
      dim: 2
      dim: -1
      dim: 0
    }
  }
}
layer {
  name: "rpn-data"
  type: "Python"
  bottom: "rpn_cls_score"
  bottom: "gt_boxes"
  bottom: "im_info"
  bottom: "data"
  top: "rpn_labels"
  top: "rpn_bbox_targets"
  top: "rpn_bbox_inside_weights"
  top: "rpn_bbox_outside_weights"
  python_param {
    module: "rpn.anchor_target_layer"
    layer: "AnchorTargetLayer"
    param_str: "\'feat_stride\': 16"
  }
}
layer {
  name: "rpn_loss_cls"
  type: "SoftmaxWithLoss"
  bottom: "rpn_cls_score_reshape"
  bottom: "rpn_labels"
  top: "rpn_cls_loss"
  loss_weight: 1
  propagate_down: true
  propagate_down: false
  loss_param {
    ignore_label: -1
    normalize: true
  }
}
layer {
  name: "rpn_loss_bbox"
  type: "SmoothL1Loss"
  bottom: "rpn_bbox_pred"
  bottom: "rpn_bbox_targets"
  bottom: "rpn_bbox_inside_weights"
  bottom: "rpn_bbox_outside_weights"
  top: "rpn_loss_bbox"
  loss_weight: 1
  smooth_l1_loss_param {
    sigma: 3
  }
}
layer {
  name: "rpn_cls_prob"
  type: "Softmax"
  bottom: "rpn_cls_score_reshape"
  top: "rpn_cls_prob"
}
layer {
  name: "rpn_cls_prob_reshape"
  type: "Reshape"
  bottom: "rpn_cls_prob"
  top: "rpn_cls_prob_reshape"
  reshape_param {
    shape {
      dim: 0
      dim: 18
      dim: -1
      dim: 0
    }
  }
}
layer {
  name: "proposal"
  type: "Python"
  bottom: "rpn_cls_prob_reshape"
  bottom: "rpn_bbox_pred"
  bottom: "im_info"
  top: "rpn_rois"
  python_param {
    module: "rpn.proposal_layer"
    layer: "ProposalLayer"
    param_str: "\'feat_stride\': 16"
  }
}
layer {
  name: "roi-data"
  type: "Python"
  bottom: "rpn_rois"
  bottom: "gt_boxes"
  top: "rois"
  top: "labels"
  top: "bbox_targets"
  top: "bbox_inside_weights"
  top: "bbox_outside_weights"
  python_param {
    module: "rpn.proposal_target_layer"
    layer: "ProposalTargetLayer"
    param_str: "\'num_classes\': 6"
  }
}
layer {
  name: "roi_pool5"
  type: "ROIPooling"
  bottom: "conv5_3"
  bottom: "rois"
  top: "pool5"
  roi_pooling_param {
    pooled_h: 7
    pooled_w: 7
    spatial_scale: 0.0625
  }
}
layer {
  name: "fc6"
  type: "InnerProduct"
  bottom: "pool5"
  top: "fc6"
  param {
    lr_mult: 1
  }
  param {
    lr_mult: 2
  }
  inner_product_param {
    num_output: 4096
  }
}
layer {
  name: "relu6"
  type: "ReLU"
  bottom: "fc6"
  top: "fc6"
}
layer {
  name: "drop6"
  type: "Dropout"
  bottom: "fc6"
  top: "fc6"
  dropout_param {
    dropout_ratio: 0.5
  }
}
layer {
  name: "fc7"
  type: "InnerProduct"
  bottom: "fc6"
  top: "fc7"
  param {
    lr_mult: 1
  }
  param {
    lr_mult: 2
  }
  inner_product_param {
    num_output: 4096
  }
}
layer {
  name: "relu7"
  type: "ReLU"
  bottom: "fc7"
  top: "fc7"
}
layer {
  name: "drop7"
  type: "Dropout"
  bottom: "fc7"
  top: "fc7"
  dropout_param {
    dropout_ratio: 0.5
  }
}
layer {
  name: "my_cls_score"
  type: "InnerProduct"
  bottom: "fc7"
  top: "my_cls_score"
  param {
    lr_mult: 1
  }
  param {
    lr_mult: 2
  }
  inner_product_param {
    num_output: 6
    weight_filler {
      type: "gaussian"
      std: 0.01
    }
    bias_filler {
      type: "constant"
      value: 0
    }
  }
}
layer {
  name: "my_bbox_pred"
  type: "InnerProduct"
  bottom: "fc7"
  top: "my_bbox_pred"
  param {
    lr_mult: 1
  }
  param {
    lr_mult: 2
  }
  inner_product_param {
    num_output: 24
    weight_filler {
      type: "gaussian"
      std: 0.001
    }
    bias_filler {
      type: "constant"
      value: 0
    }
  }
}
layer {
  name: "loss_cls"
  type: "SoftmaxWithLoss"
  bottom: "my_cls_score"
  bottom: "labels"
  top: "loss_cls"
  loss_weight: 1
  propagate_down: true
  propagate_down: false
}
layer {
  name: "loss_bbox"
  type: "SmoothL1Loss"
  bottom: "my_bbox_pred"
  bottom: "bbox_targets"
  bottom: "bbox_inside_weights"
  bottom: "bbox_outside_weights"
  top: "loss_bbox"
  loss_weight: 1
}
I0415 09:26:10.384464 17038 layer_factory.hpp:77] Creating layer input-data
I0415 09:26:10.401926 17038 net.cpp:100] Creating Layer input-data
I0415 09:26:10.401947 17038 net.cpp:418] input-data -> data
I0415 09:26:10.401973 17038 net.cpp:418] input-data -> im_info
I0415 09:26:10.401978 17038 net.cpp:418] input-data -> gt_boxes
I0415 09:26:10.413353 17038 net.cpp:150] Setting up input-data
I0415 09:26:10.413373 17038 net.cpp:157] Top shape: 1 3 600 1000 (1800000)
I0415 09:26:10.413378 17038 net.cpp:157] Top shape: 1 3 (3)
I0415 09:26:10.413379 17038 net.cpp:157] Top shape: 1 4 (4)
I0415 09:26:10.413395 17038 net.cpp:165] Memory required for data: 7200028
I0415 09:26:10.413400 17038 layer_factory.hpp:77] Creating layer data_input-data_0_split
I0415 09:26:10.413411 17038 net.cpp:100] Creating Layer data_input-data_0_split
I0415 09:26:10.413414 17038 net.cpp:444] data_input-data_0_split <- data
I0415 09:26:10.413419 17038 net.cpp:418] data_input-data_0_split -> data_input-data_0_split_0
I0415 09:26:10.413429 17038 net.cpp:418] data_input-data_0_split -> data_input-data_0_split_1
I0415 09:26:10.413452 17038 net.cpp:150] Setting up data_input-data_0_split
I0415 09:26:10.413456 17038 net.cpp:157] Top shape: 1 3 600 1000 (1800000)
I0415 09:26:10.413460 17038 net.cpp:157] Top shape: 1 3 600 1000 (1800000)
I0415 09:26:10.413460 17038 net.cpp:165] Memory required for data: 21600028
I0415 09:26:10.413463 17038 layer_factory.hpp:77] Creating layer im_info_input-data_1_split
I0415 09:26:10.413466 17038 net.cpp:100] Creating Layer im_info_input-data_1_split
I0415 09:26:10.413468 17038 net.cpp:444] im_info_input-data_1_split <- im_info
I0415 09:26:10.413471 17038 net.cpp:418] im_info_input-data_1_split -> im_info_input-data_1_split_0
I0415 09:26:10.413475 17038 net.cpp:418] im_info_input-data_1_split -> im_info_input-data_1_split_1
I0415 09:26:10.413514 17038 net.cpp:150] Setting up im_info_input-data_1_split
I0415 09:26:10.413517 17038 net.cpp:157] Top shape: 1 3 (3)
I0415 09:26:10.413521 17038 net.cpp:157] Top shape: 1 3 (3)
I0415 09:26:10.413522 17038 net.cpp:165] Memory required for data: 21600052
I0415 09:26:10.413524 17038 layer_factory.hpp:77] Creating layer gt_boxes_input-data_2_split
I0415 09:26:10.413527 17038 net.cpp:100] Creating Layer gt_boxes_input-data_2_split
I0415 09:26:10.413529 17038 net.cpp:444] gt_boxes_input-data_2_split <- gt_boxes
I0415 09:26:10.413544 17038 net.cpp:418] gt_boxes_input-data_2_split -> gt_boxes_input-data_2_split_0
I0415 09:26:10.413547 17038 net.cpp:418] gt_boxes_input-data_2_split -> gt_boxes_input-data_2_split_1
I0415 09:26:10.413564 17038 net.cpp:150] Setting up gt_boxes_input-data_2_split
I0415 09:26:10.413568 17038 net.cpp:157] Top shape: 1 4 (4)
I0415 09:26:10.413569 17038 net.cpp:157] Top shape: 1 4 (4)
I0415 09:26:10.413571 17038 net.cpp:165] Memory required for data: 21600084
I0415 09:26:10.413573 17038 layer_factory.hpp:77] Creating layer conv1_1
I0415 09:26:10.413579 17038 net.cpp:100] Creating Layer conv1_1
I0415 09:26:10.413581 17038 net.cpp:444] conv1_1 <- data_input-data_0_split_0
I0415 09:26:10.413584 17038 net.cpp:418] conv1_1 -> conv1_1
I0415 09:26:10.680802 17038 net.cpp:150] Setting up conv1_1
I0415 09:26:10.680822 17038 net.cpp:157] Top shape: 1 64 600 1000 (38400000)
I0415 09:26:10.680825 17038 net.cpp:165] Memory required for data: 175200084
I0415 09:26:10.680850 17038 layer_factory.hpp:77] Creating layer relu1_1
I0415 09:26:10.680857 17038 net.cpp:100] Creating Layer relu1_1
I0415 09:26:10.680860 17038 net.cpp:444] relu1_1 <- conv1_1
I0415 09:26:10.680865 17038 net.cpp:405] relu1_1 -> conv1_1 (in-place)
I0415 09:26:10.680979 17038 net.cpp:150] Setting up relu1_1
I0415 09:26:10.680984 17038 net.cpp:157] Top shape: 1 64 600 1000 (38400000)
I0415 09:26:10.680986 17038 net.cpp:165] Memory required for data: 328800084
I0415 09:26:10.680989 17038 layer_factory.hpp:77] Creating layer conv1_2
I0415 09:26:10.680994 17038 net.cpp:100] Creating Layer conv1_2
I0415 09:26:10.680996 17038 net.cpp:444] conv1_2 <- conv1_1
I0415 09:26:10.681000 17038 net.cpp:418] conv1_2 -> conv1_2
I0415 09:26:10.682924 17038 net.cpp:150] Setting up conv1_2
I0415 09:26:10.682940 17038 net.cpp:157] Top shape: 1 64 600 1000 (38400000)
I0415 09:26:10.682942 17038 net.cpp:165] Memory required for data: 482400084
I0415 09:26:10.682965 17038 layer_factory.hpp:77] Creating layer relu1_2
I0415 09:26:10.682972 17038 net.cpp:100] Creating Layer relu1_2
I0415 09:26:10.682974 17038 net.cpp:444] relu1_2 <- conv1_2
I0415 09:26:10.682978 17038 net.cpp:405] relu1_2 -> conv1_2 (in-place)
I0415 09:26:10.683086 17038 net.cpp:150] Setting up relu1_2
I0415 09:26:10.683091 17038 net.cpp:157] Top shape: 1 64 600 1000 (38400000)
I0415 09:26:10.683094 17038 net.cpp:165] Memory required for data: 636000084
I0415 09:26:10.683095 17038 layer_factory.hpp:77] Creating layer pool1
I0415 09:26:10.683101 17038 net.cpp:100] Creating Layer pool1
I0415 09:26:10.683104 17038 net.cpp:444] pool1 <- conv1_2
I0415 09:26:10.683107 17038 net.cpp:418] pool1 -> pool1
I0415 09:26:10.683148 17038 net.cpp:150] Setting up pool1
I0415 09:26:10.683152 17038 net.cpp:157] Top shape: 1 64 300 500 (9600000)
I0415 09:26:10.683154 17038 net.cpp:165] Memory required for data: 674400084
I0415 09:26:10.683156 17038 layer_factory.hpp:77] Creating layer conv2_1
I0415 09:26:10.683162 17038 net.cpp:100] Creating Layer conv2_1
I0415 09:26:10.683176 17038 net.cpp:444] conv2_1 <- pool1
I0415 09:26:10.683179 17038 net.cpp:418] conv2_1 -> conv2_1
I0415 09:26:10.684590 17038 net.cpp:150] Setting up conv2_1
I0415 09:26:10.684602 17038 net.cpp:157] Top shape: 1 128 300 500 (19200000)
I0415 09:26:10.684604 17038 net.cpp:165] Memory required for data: 751200084
I0415 09:26:10.684612 17038 layer_factory.hpp:77] Creating layer relu2_1
I0415 09:26:10.684631 17038 net.cpp:100] Creating Layer relu2_1
I0415 09:26:10.684634 17038 net.cpp:444] relu2_1 <- conv2_1
I0415 09:26:10.684638 17038 net.cpp:405] relu2_1 -> conv2_1 (in-place)
I0415 09:26:10.684891 17038 net.cpp:150] Setting up relu2_1
I0415 09:26:10.684900 17038 net.cpp:157] Top shape: 1 128 300 500 (19200000)
I0415 09:26:10.684902 17038 net.cpp:165] Memory required for data: 828000084
I0415 09:26:10.684906 17038 layer_factory.hpp:77] Creating layer conv2_2
I0415 09:26:10.684911 17038 net.cpp:100] Creating Layer conv2_2
I0415 09:26:10.684914 17038 net.cpp:444] conv2_2 <- conv2_1
I0415 09:26:10.684917 17038 net.cpp:418] conv2_2 -> conv2_2
I0415 09:26:10.685722 17038 net.cpp:150] Setting up conv2_2
I0415 09:26:10.685731 17038 net.cpp:157] Top shape: 1 128 300 500 (19200000)
I0415 09:26:10.685734 17038 net.cpp:165] Memory required for data: 904800084
I0415 09:26:10.685739 17038 layer_factory.hpp:77] Creating layer relu2_2
I0415 09:26:10.685757 17038 net.cpp:100] Creating Layer relu2_2
I0415 09:26:10.685760 17038 net.cpp:444] relu2_2 <- conv2_2
I0415 09:26:10.685762 17038 net.cpp:405] relu2_2 -> conv2_2 (in-place)
I0415 09:26:10.686036 17038 net.cpp:150] Setting up relu2_2
I0415 09:26:10.686044 17038 net.cpp:157] Top shape: 1 128 300 500 (19200000)
I0415 09:26:10.686048 17038 net.cpp:165] Memory required for data: 981600084
I0415 09:26:10.686050 17038 layer_factory.hpp:77] Creating layer pool2
I0415 09:26:10.686055 17038 net.cpp:100] Creating Layer pool2
I0415 09:26:10.686058 17038 net.cpp:444] pool2 <- conv2_2
I0415 09:26:10.686063 17038 net.cpp:418] pool2 -> pool2
I0415 09:26:10.686089 17038 net.cpp:150] Setting up pool2
I0415 09:26:10.686094 17038 net.cpp:157] Top shape: 1 128 150 250 (4800000)
I0415 09:26:10.686095 17038 net.cpp:165] Memory required for data: 1000800084
I0415 09:26:10.686098 17038 layer_factory.hpp:77] Creating layer conv3_1
I0415 09:26:10.686102 17038 net.cpp:100] Creating Layer conv3_1
I0415 09:26:10.686105 17038 net.cpp:444] conv3_1 <- pool2
I0415 09:26:10.686107 17038 net.cpp:418] conv3_1 -> conv3_1
I0415 09:26:10.687592 17038 net.cpp:150] Setting up conv3_1
I0415 09:26:10.687603 17038 net.cpp:157] Top shape: 1 256 150 250 (9600000)
I0415 09:26:10.687607 17038 net.cpp:165] Memory required for data: 1039200084
I0415 09:26:10.687613 17038 layer_factory.hpp:77] Creating layer relu3_1
I0415 09:26:10.687618 17038 net.cpp:100] Creating Layer relu3_1
I0415 09:26:10.687620 17038 net.cpp:444] relu3_1 <- conv3_1
I0415 09:26:10.687624 17038 net.cpp:405] relu3_1 -> conv3_1 (in-place)
I0415 09:26:10.687752 17038 net.cpp:150] Setting up relu3_1
I0415 09:26:10.687757 17038 net.cpp:157] Top shape: 1 256 150 250 (9600000)
I0415 09:26:10.687760 17038 net.cpp:165] Memory required for data: 1077600084
I0415 09:26:10.687762 17038 layer_factory.hpp:77] Creating layer conv3_2
I0415 09:26:10.687768 17038 net.cpp:100] Creating Layer conv3_2
I0415 09:26:10.687772 17038 net.cpp:444] conv3_2 <- conv3_1
I0415 09:26:10.687775 17038 net.cpp:418] conv3_2 -> conv3_2
I0415 09:26:10.689370 17038 net.cpp:150] Setting up conv3_2
I0415 09:26:10.689381 17038 net.cpp:157] Top shape: 1 256 150 250 (9600000)
I0415 09:26:10.689384 17038 net.cpp:165] Memory required for data: 1116000084
I0415 09:26:10.689389 17038 layer_factory.hpp:77] Creating layer relu3_2
I0415 09:26:10.689393 17038 net.cpp:100] Creating Layer relu3_2
I0415 09:26:10.689410 17038 net.cpp:444] relu3_2 <- conv3_2
I0415 09:26:10.689414 17038 net.cpp:405] relu3_2 -> conv3_2 (in-place)
I0415 09:26:10.689517 17038 net.cpp:150] Setting up relu3_2
I0415 09:26:10.689523 17038 net.cpp:157] Top shape: 1 256 150 250 (9600000)
I0415 09:26:10.689540 17038 net.cpp:165] Memory required for data: 1154400084
I0415 09:26:10.689543 17038 layer_factory.hpp:77] Creating layer conv3_3
I0415 09:26:10.689548 17038 net.cpp:100] Creating Layer conv3_3
I0415 09:26:10.689550 17038 net.cpp:444] conv3_3 <- conv3_2
I0415 09:26:10.689553 17038 net.cpp:418] conv3_3 -> conv3_3
I0415 09:26:10.691336 17038 net.cpp:150] Setting up conv3_3
I0415 09:26:10.691351 17038 net.cpp:157] Top shape: 1 256 150 250 (9600000)
I0415 09:26:10.691354 17038 net.cpp:165] Memory required for data: 1192800084
I0415 09:26:10.691360 17038 layer_factory.hpp:77] Creating layer relu3_3
I0415 09:26:10.691367 17038 net.cpp:100] Creating Layer relu3_3
I0415 09:26:10.691371 17038 net.cpp:444] relu3_3 <- conv3_3
I0415 09:26:10.691375 17038 net.cpp:405] relu3_3 -> conv3_3 (in-place)
I0415 09:26:10.691498 17038 net.cpp:150] Setting up relu3_3
I0415 09:26:10.691504 17038 net.cpp:157] Top shape: 1 256 150 250 (9600000)
I0415 09:26:10.691509 17038 net.cpp:165] Memory required for data: 1231200084
I0415 09:26:10.691510 17038 layer_factory.hpp:77] Creating layer pool3
I0415 09:26:10.691514 17038 net.cpp:100] Creating Layer pool3
I0415 09:26:10.691517 17038 net.cpp:444] pool3 <- conv3_3
I0415 09:26:10.691521 17038 net.cpp:418] pool3 -> pool3
I0415 09:26:10.691550 17038 net.cpp:150] Setting up pool3
I0415 09:26:10.691555 17038 net.cpp:157] Top shape: 1 256 75 125 (2400000)
I0415 09:26:10.691556 17038 net.cpp:165] Memory required for data: 1240800084
I0415 09:26:10.691560 17038 layer_factory.hpp:77] Creating layer conv4_1
I0415 09:26:10.691565 17038 net.cpp:100] Creating Layer conv4_1
I0415 09:26:10.691567 17038 net.cpp:444] conv4_1 <- pool3
I0415 09:26:10.691571 17038 net.cpp:418] conv4_1 -> conv4_1
I0415 09:26:10.694948 17038 net.cpp:150] Setting up conv4_1
I0415 09:26:10.694968 17038 net.cpp:157] Top shape: 1 512 75 125 (4800000)
I0415 09:26:10.694972 17038 net.cpp:165] Memory required for data: 1260000084
I0415 09:26:10.694978 17038 layer_factory.hpp:77] Creating layer relu4_1
I0415 09:26:10.694986 17038 net.cpp:100] Creating Layer relu4_1
I0415 09:26:10.694989 17038 net.cpp:444] relu4_1 <- conv4_1
I0415 09:26:10.694993 17038 net.cpp:405] relu4_1 -> conv4_1 (in-place)
I0415 09:26:10.695103 17038 net.cpp:150] Setting up relu4_1
I0415 09:26:10.695109 17038 net.cpp:157] Top shape: 1 512 75 125 (4800000)
I0415 09:26:10.695112 17038 net.cpp:165] Memory required for data: 1279200084
I0415 09:26:10.695114 17038 layer_factory.hpp:77] Creating layer conv4_2
I0415 09:26:10.695121 17038 net.cpp:100] Creating Layer conv4_2
I0415 09:26:10.695122 17038 net.cpp:444] conv4_2 <- conv4_1
I0415 09:26:10.695127 17038 net.cpp:418] conv4_2 -> conv4_2
I0415 09:26:10.698941 17038 net.cpp:150] Setting up conv4_2
I0415 09:26:10.698962 17038 net.cpp:157] Top shape: 1 512 75 125 (4800000)
I0415 09:26:10.698966 17038 net.cpp:165] Memory required for data: 1298400084
I0415 09:26:10.698974 17038 layer_factory.hpp:77] Creating layer relu4_2
I0415 09:26:10.698982 17038 net.cpp:100] Creating Layer relu4_2
I0415 09:26:10.698984 17038 net.cpp:444] relu4_2 <- conv4_2
I0415 09:26:10.698988 17038 net.cpp:405] relu4_2 -> conv4_2 (in-place)
I0415 09:26:10.699276 17038 net.cpp:150] Setting up relu4_2
I0415 09:26:10.699286 17038 net.cpp:157] Top shape: 1 512 75 125 (4800000)
I0415 09:26:10.699301 17038 net.cpp:165] Memory required for data: 1317600084
I0415 09:26:10.699303 17038 layer_factory.hpp:77] Creating layer conv4_3
I0415 09:26:10.699323 17038 net.cpp:100] Creating Layer conv4_3
I0415 09:26:10.699326 17038 net.cpp:444] conv4_3 <- conv4_2
I0415 09:26:10.699331 17038 net.cpp:418] conv4_3 -> conv4_3
I0415 09:26:10.702734 17038 net.cpp:150] Setting up conv4_3
I0415 09:26:10.702757 17038 net.cpp:157] Top shape: 1 512 75 125 (4800000)
I0415 09:26:10.702760 17038 net.cpp:165] Memory required for data: 1336800084
I0415 09:26:10.702767 17038 layer_factory.hpp:77] Creating layer relu4_3
I0415 09:26:10.702774 17038 net.cpp:100] Creating Layer relu4_3
I0415 09:26:10.702776 17038 net.cpp:444] relu4_3 <- conv4_3
I0415 09:26:10.702780 17038 net.cpp:405] relu4_3 -> conv4_3 (in-place)
I0415 09:26:10.703119 17038 net.cpp:150] Setting up relu4_3
I0415 09:26:10.703128 17038 net.cpp:157] Top shape: 1 512 75 125 (4800000)
I0415 09:26:10.703131 17038 net.cpp:165] Memory required for data: 1356000084
I0415 09:26:10.703133 17038 layer_factory.hpp:77] Creating layer pool4
I0415 09:26:10.703138 17038 net.cpp:100] Creating Layer pool4
I0415 09:26:10.703140 17038 net.cpp:444] pool4 <- conv4_3
I0415 09:26:10.703145 17038 net.cpp:418] pool4 -> pool4
I0415 09:26:10.703172 17038 net.cpp:150] Setting up pool4
I0415 09:26:10.703176 17038 net.cpp:157] Top shape: 1 512 38 63 (1225728)
I0415 09:26:10.703178 17038 net.cpp:165] Memory required for data: 1360902996
I0415 09:26:10.703181 17038 layer_factory.hpp:77] Creating layer conv5_1
I0415 09:26:10.703186 17038 net.cpp:100] Creating Layer conv5_1
I0415 09:26:10.703188 17038 net.cpp:444] conv5_1 <- pool4
I0415 09:26:10.703191 17038 net.cpp:418] conv5_1 -> conv5_1
I0415 09:26:10.706800 17038 net.cpp:150] Setting up conv5_1
I0415 09:26:10.706820 17038 net.cpp:157] Top shape: 1 512 38 63 (1225728)
I0415 09:26:10.706823 17038 net.cpp:165] Memory required for data: 1365805908
I0415 09:26:10.706830 17038 layer_factory.hpp:77] Creating layer relu5_1
I0415 09:26:10.706837 17038 net.cpp:100] Creating Layer relu5_1
I0415 09:26:10.706840 17038 net.cpp:444] relu5_1 <- conv5_1
I0415 09:26:10.706845 17038 net.cpp:405] relu5_1 -> conv5_1 (in-place)
I0415 09:26:10.706945 17038 net.cpp:150] Setting up relu5_1
I0415 09:26:10.706951 17038 net.cpp:157] Top shape: 1 512 38 63 (1225728)
I0415 09:26:10.706954 17038 net.cpp:165] Memory required for data: 1370708820
I0415 09:26:10.706956 17038 layer_factory.hpp:77] Creating layer conv5_2
I0415 09:26:10.706962 17038 net.cpp:100] Creating Layer conv5_2
I0415 09:26:10.706964 17038 net.cpp:444] conv5_2 <- conv5_1
I0415 09:26:10.706967 17038 net.cpp:418] conv5_2 -> conv5_2
I0415 09:26:10.711040 17038 net.cpp:150] Setting up conv5_2
I0415 09:26:10.711076 17038 net.cpp:157] Top shape: 1 512 38 63 (1225728)
I0415 09:26:10.711079 17038 net.cpp:165] Memory required for data: 1375611732
I0415 09:26:10.711087 17038 layer_factory.hpp:77] Creating layer relu5_2
I0415 09:26:10.711096 17038 net.cpp:100] Creating Layer relu5_2
I0415 09:26:10.711099 17038 net.cpp:444] relu5_2 <- conv5_2
I0415 09:26:10.711103 17038 net.cpp:405] relu5_2 -> conv5_2 (in-place)
I0415 09:26:10.711249 17038 net.cpp:150] Setting up relu5_2
I0415 09:26:10.711256 17038 net.cpp:157] Top shape: 1 512 38 63 (1225728)
I0415 09:26:10.711272 17038 net.cpp:165] Memory required for data: 1380514644
I0415 09:26:10.711274 17038 layer_factory.hpp:77] Creating layer conv5_3
I0415 09:26:10.711282 17038 net.cpp:100] Creating Layer conv5_3
I0415 09:26:10.711284 17038 net.cpp:444] conv5_3 <- conv5_2
I0415 09:26:10.711288 17038 net.cpp:418] conv5_3 -> conv5_3
I0415 09:26:10.714979 17038 net.cpp:150] Setting up conv5_3
I0415 09:26:10.715000 17038 net.cpp:157] Top shape: 1 512 38 63 (1225728)
I0415 09:26:10.715003 17038 net.cpp:165] Memory required for data: 1385417556
I0415 09:26:10.715010 17038 layer_factory.hpp:77] Creating layer relu5_3
I0415 09:26:10.715016 17038 net.cpp:100] Creating Layer relu5_3
I0415 09:26:10.715020 17038 net.cpp:444] relu5_3 <- conv5_3
I0415 09:26:10.715024 17038 net.cpp:405] relu5_3 -> conv5_3 (in-place)
I0415 09:26:10.715152 17038 net.cpp:150] Setting up relu5_3
I0415 09:26:10.715159 17038 net.cpp:157] Top shape: 1 512 38 63 (1225728)
I0415 09:26:10.715175 17038 net.cpp:165] Memory required for data: 1390320468
I0415 09:26:10.715178 17038 layer_factory.hpp:77] Creating layer conv5_3_relu5_3_0_split
I0415 09:26:10.715183 17038 net.cpp:100] Creating Layer conv5_3_relu5_3_0_split
I0415 09:26:10.715184 17038 net.cpp:444] conv5_3_relu5_3_0_split <- conv5_3
I0415 09:26:10.715188 17038 net.cpp:418] conv5_3_relu5_3_0_split -> conv5_3_relu5_3_0_split_0
I0415 09:26:10.715193 17038 net.cpp:418] conv5_3_relu5_3_0_split -> conv5_3_relu5_3_0_split_1
I0415 09:26:10.715219 17038 net.cpp:150] Setting up conv5_3_relu5_3_0_split
I0415 09:26:10.715224 17038 net.cpp:157] Top shape: 1 512 38 63 (1225728)
I0415 09:26:10.715226 17038 net.cpp:157] Top shape: 1 512 38 63 (1225728)
I0415 09:26:10.715229 17038 net.cpp:165] Memory required for data: 1400126292
I0415 09:26:10.715230 17038 layer_factory.hpp:77] Creating layer rpn_conv/3x3
I0415 09:26:10.715250 17038 net.cpp:100] Creating Layer rpn_conv/3x3
I0415 09:26:10.715252 17038 net.cpp:444] rpn_conv/3x3 <- conv5_3_relu5_3_0_split_0
I0415 09:26:10.715255 17038 net.cpp:418] rpn_conv/3x3 -> rpn/output
I0415 09:26:10.769362 17038 net.cpp:150] Setting up rpn_conv/3x3
I0415 09:26:10.769381 17038 net.cpp:157] Top shape: 1 512 38 63 (1225728)
I0415 09:26:10.769383 17038 net.cpp:165] Memory required for data: 1405029204
I0415 09:26:10.769404 17038 layer_factory.hpp:77] Creating layer rpn_relu/3x3
I0415 09:26:10.769412 17038 net.cpp:100] Creating Layer rpn_relu/3x3
I0415 09:26:10.769414 17038 net.cpp:444] rpn_relu/3x3 <- rpn/output
I0415 09:26:10.769418 17038 net.cpp:405] rpn_relu/3x3 -> rpn/output (in-place)
I0415 09:26:10.769525 17038 net.cpp:150] Setting up rpn_relu/3x3
I0415 09:26:10.769531 17038 net.cpp:157] Top shape: 1 512 38 63 (1225728)
I0415 09:26:10.769532 17038 net.cpp:165] Memory required for data: 1409932116
I0415 09:26:10.769534 17038 layer_factory.hpp:77] Creating layer rpn/output_rpn_relu/3x3_0_split
I0415 09:26:10.769538 17038 net.cpp:100] Creating Layer rpn/output_rpn_relu/3x3_0_split
I0415 09:26:10.769541 17038 net.cpp:444] rpn/output_rpn_relu/3x3_0_split <- rpn/output
I0415 09:26:10.769543 17038 net.cpp:418] rpn/output_rpn_relu/3x3_0_split -> rpn/output_rpn_relu/3x3_0_split_0
I0415 09:26:10.769547 17038 net.cpp:418] rpn/output_rpn_relu/3x3_0_split -> rpn/output_rpn_relu/3x3_0_split_1
I0415 09:26:10.769585 17038 net.cpp:150] Setting up rpn/output_rpn_relu/3x3_0_split
I0415 09:26:10.769590 17038 net.cpp:157] Top shape: 1 512 38 63 (1225728)
I0415 09:26:10.769593 17038 net.cpp:157] Top shape: 1 512 38 63 (1225728)
I0415 09:26:10.769594 17038 net.cpp:165] Memory required for data: 1419737940
I0415 09:26:10.769596 17038 layer_factory.hpp:77] Creating layer rpn_cls_score
I0415 09:26:10.769603 17038 net.cpp:100] Creating Layer rpn_cls_score
I0415 09:26:10.769605 17038 net.cpp:444] rpn_cls_score <- rpn/output_rpn_relu/3x3_0_split_0
I0415 09:26:10.769620 17038 net.cpp:418] rpn_cls_score -> rpn_cls_score
I0415 09:26:10.770701 17038 net.cpp:150] Setting up rpn_cls_score
I0415 09:26:10.770710 17038 net.cpp:157] Top shape: 1 18 38 63 (43092)
I0415 09:26:10.770712 17038 net.cpp:165] Memory required for data: 1419910308
I0415 09:26:10.770717 17038 layer_factory.hpp:77] Creating layer rpn_cls_score_rpn_cls_score_0_split
I0415 09:26:10.770720 17038 net.cpp:100] Creating Layer rpn_cls_score_rpn_cls_score_0_split
I0415 09:26:10.770737 17038 net.cpp:444] rpn_cls_score_rpn_cls_score_0_split <- rpn_cls_score
I0415 09:26:10.770741 17038 net.cpp:418] rpn_cls_score_rpn_cls_score_0_split -> rpn_cls_score_rpn_cls_score_0_split_0
I0415 09:26:10.770747 17038 net.cpp:418] rpn_cls_score_rpn_cls_score_0_split -> rpn_cls_score_rpn_cls_score_0_split_1
I0415 09:26:10.770772 17038 net.cpp:150] Setting up rpn_cls_score_rpn_cls_score_0_split
I0415 09:26:10.770776 17038 net.cpp:157] Top shape: 1 18 38 63 (43092)
I0415 09:26:10.770779 17038 net.cpp:157] Top shape: 1 18 38 63 (43092)
I0415 09:26:10.770781 17038 net.cpp:165] Memory required for data: 1420255044
I0415 09:26:10.770783 17038 layer_factory.hpp:77] Creating layer rpn_bbox_pred
I0415 09:26:10.770788 17038 net.cpp:100] Creating Layer rpn_bbox_pred
I0415 09:26:10.770790 17038 net.cpp:444] rpn_bbox_pred <- rpn/output_rpn_relu/3x3_0_split_1
I0415 09:26:10.770794 17038 net.cpp:418] rpn_bbox_pred -> rpn_bbox_pred
I0415 09:26:10.771867 17038 net.cpp:150] Setting up rpn_bbox_pred
I0415 09:26:10.771877 17038 net.cpp:157] Top shape: 1 36 38 63 (86184)
I0415 09:26:10.771878 17038 net.cpp:165] Memory required for data: 1420599780
I0415 09:26:10.771883 17038 layer_factory.hpp:77] Creating layer rpn_bbox_pred_rpn_bbox_pred_0_split
I0415 09:26:10.771886 17038 net.cpp:100] Creating Layer rpn_bbox_pred_rpn_bbox_pred_0_split
I0415 09:26:10.771903 17038 net.cpp:444] rpn_bbox_pred_rpn_bbox_pred_0_split <- rpn_bbox_pred
I0415 09:26:10.771906 17038 net.cpp:418] rpn_bbox_pred_rpn_bbox_pred_0_split -> rpn_bbox_pred_rpn_bbox_pred_0_split_0
I0415 09:26:10.771910 17038 net.cpp:418] rpn_bbox_pred_rpn_bbox_pred_0_split -> rpn_bbox_pred_rpn_bbox_pred_0_split_1
I0415 09:26:10.771934 17038 net.cpp:150] Setting up rpn_bbox_pred_rpn_bbox_pred_0_split
I0415 09:26:10.771937 17038 net.cpp:157] Top shape: 1 36 38 63 (86184)
I0415 09:26:10.771940 17038 net.cpp:157] Top shape: 1 36 38 63 (86184)
I0415 09:26:10.771942 17038 net.cpp:165] Memory required for data: 1421289252
I0415 09:26:10.771944 17038 layer_factory.hpp:77] Creating layer rpn_cls_score_reshape
I0415 09:26:10.771953 17038 net.cpp:100] Creating Layer rpn_cls_score_reshape
I0415 09:26:10.771955 17038 net.cpp:444] rpn_cls_score_reshape <- rpn_cls_score_rpn_cls_score_0_split_0
I0415 09:26:10.771958 17038 net.cpp:418] rpn_cls_score_reshape -> rpn_cls_score_reshape
I0415 09:26:10.771975 17038 net.cpp:150] Setting up rpn_cls_score_reshape
I0415 09:26:10.772001 17038 net.cpp:157] Top shape: 1 2 342 63 (43092)
I0415 09:26:10.772006 17038 net.cpp:165] Memory required for data: 1421461620
I0415 09:26:10.772007 17038 layer_factory.hpp:77] Creating layer rpn_cls_score_reshape_rpn_cls_score_reshape_0_split
I0415 09:26:10.772011 17038 net.cpp:100] Creating Layer rpn_cls_score_reshape_rpn_cls_score_reshape_0_split
I0415 09:26:10.772014 17038 net.cpp:444] rpn_cls_score_reshape_rpn_cls_score_reshape_0_split <- rpn_cls_score_reshape
I0415 09:26:10.772017 17038 net.cpp:418] rpn_cls_score_reshape_rpn_cls_score_reshape_0_split -> rpn_cls_score_reshape_rpn_cls_score_reshape_0_split_0
I0415 09:26:10.772022 17038 net.cpp:418] rpn_cls_score_reshape_rpn_cls_score_reshape_0_split -> rpn_cls_score_reshape_rpn_cls_score_reshape_0_split_1
I0415 09:26:10.772069 17038 net.cpp:150] Setting up rpn_cls_score_reshape_rpn_cls_score_reshape_0_split
I0415 09:26:10.772074 17038 net.cpp:157] Top shape: 1 2 342 63 (43092)
I0415 09:26:10.772076 17038 net.cpp:157] Top shape: 1 2 342 63 (43092)
I0415 09:26:10.772079 17038 net.cpp:165] Memory required for data: 1421806356
I0415 09:26:10.772081 17038 layer_factory.hpp:77] Creating layer rpn-data
I0415 09:26:10.772384 17038 net.cpp:100] Creating Layer rpn-data
I0415 09:26:10.772393 17038 net.cpp:444] rpn-data <- rpn_cls_score_rpn_cls_score_0_split_1
I0415 09:26:10.772397 17038 net.cpp:444] rpn-data <- gt_boxes_input-data_2_split_0
I0415 09:26:10.772414 17038 net.cpp:444] rpn-data <- im_info_input-data_1_split_0
I0415 09:26:10.772419 17038 net.cpp:444] rpn-data <- data_input-data_0_split_1
I0415 09:26:10.772423 17038 net.cpp:418] rpn-data -> rpn_labels
I0415 09:26:10.772436 17038 net.cpp:418] rpn-data -> rpn_bbox_targets
I0415 09:26:10.772442 17038 net.cpp:418] rpn-data -> rpn_bbox_inside_weights
I0415 09:26:10.772447 17038 net.cpp:418] rpn-data -> rpn_bbox_outside_weights
I0415 09:26:10.772930 17038 net.cpp:150] Setting up rpn-data
I0415 09:26:10.772940 17038 net.cpp:157] Top shape: 1 1 342 63 (21546)
I0415 09:26:10.772943 17038 net.cpp:157] Top shape: 1 36 38 63 (86184)
I0415 09:26:10.772946 17038 net.cpp:157] Top shape: 1 36 38 63 (86184)
I0415 09:26:10.772948 17038 net.cpp:157] Top shape: 1 36 38 63 (86184)
I0415 09:26:10.772950 17038 net.cpp:165] Memory required for data: 1422926748
I0415 09:26:10.772953 17038 layer_factory.hpp:77] Creating layer rpn_loss_cls
I0415 09:26:10.772961 17038 net.cpp:100] Creating Layer rpn_loss_cls
I0415 09:26:10.772964 17038 net.cpp:444] rpn_loss_cls <- rpn_cls_score_reshape_rpn_cls_score_reshape_0_split_0
I0415 09:26:10.772967 17038 net.cpp:444] rpn_loss_cls <- rpn_labels
…
I0415 09:26:10.773658 17038 net.cpp:157] Top shape: (1)
I0415 09:26:10.773660 17038 net.cpp:160]     with loss weight 1
I0415 09:26:10.773663 17038 net.cpp:165] Memory required for data: 1422926756
I0415 09:26:10.773665 17038 layer_factory.hpp:77] Creating layer rpn_cls_prob
I0415 09:26:10.773682 17038 net.cpp:100] Creating Layer rpn_cls_prob
I0415 09:26:10.773686 17038 net.cpp:444] rpn_cls_prob <- rpn_cls_score_reshape_rpn_cls_score_reshape_0_split_1
I0415 09:26:10.773689 17038 net.cpp:418] rpn_cls_prob -> rpn_cls_prob
I0415 09:26:10.774076 17038 net.cpp:150] Setting up rpn_cls_prob
I0415 09:26:10.774085 17038 net.cpp:157] Top shape: 1 2 342 63 (43092)
I0415 09:26:10.774090 17038 net.cpp:165] Memory required for data: 1423099124
I0415 09:26:10.774106 17038 layer_factory.hpp:77] Creating layer rpn_cls_prob_reshape
I0415 09:26:10.774111 17038 net.cpp:100] Creating Layer rpn_cls_prob_reshape
I0415 09:26:10.774114 17038 net.cpp:444] rpn_cls_prob_reshape <- rpn_cls_prob
I0415 09:26:10.774117 17038 net.cpp:418] rpn_cls_prob_reshape -> rpn_cls_prob_reshape
I0415 09:26:10.774137 17038 net.cpp:150] Setting up rpn_cls_prob_reshape
I0415 09:26:10.774140 17038 net.cpp:157] Top shape: 1 18 38 63 (43092)
I0415 09:26:10.774143 17038 net.cpp:165] Memory required for data: 1423271492
I0415 09:26:10.774145 17038 layer_factory.hpp:77] Creating layer proposal
I0415 09:26:10.774667 17038 net.cpp:100] Creating Layer proposal
I0415 09:26:10.774688 17038 net.cpp:444] proposal <- rpn_cls_prob_reshape
I0415 09:26:10.774691 17038 net.cpp:444] proposal <- rpn_bbox_pred_rpn_bbox_pred_0_split_1
I0415 09:26:10.774694 17038 net.cpp:444] proposal <- im_info_input-data_1_split_1
I0415 09:26:10.774713 17038 net.cpp:418] proposal -> rpn_rois
I0415 09:26:10.775166 17038 net.cpp:150] Setting up proposal
I0415 09:26:10.775177 17038 net.cpp:157] Top shape: 1 5 (5)
I0415 09:26:10.775179 17038 net.cpp:165] Memory required for data: 1423271512
I0415 09:26:10.775182 17038 layer_factory.hpp:77] Creating layer roi-data
I0415 09:26:10.775321 17038 net.cpp:100] Creating Layer roi-data
I0415 09:26:10.775328 17038 net.cpp:444] roi-data <- rpn_rois
I0415 09:26:10.775333 17038 net.cpp:444] roi-data <- gt_boxes_input-data_2_split_1
I0415 09:26:10.775337 17038 net.cpp:418] roi-data -> rois
I0415 09:26:10.775342 17038 net.cpp:418] roi-data -> labels
I0415 09:26:10.775346 17038 net.cpp:418] roi-data -> bbox_targets
I0415 09:26:10.775351 17038 net.cpp:418] roi-data -> bbox_inside_weights
I0415 09:26:10.775354 17038 net.cpp:418] roi-data -> bbox_outside_weights
I0415 09:26:10.775622 17038 net.cpp:150] Setting up roi-data
I0415 09:26:10.775631 17038 net.cpp:157] Top shape: 1 5 (5)
I0415 09:26:10.775635 17038 net.cpp:157] Top shape: 1 1 (1)
I0415 09:26:10.775651 17038 net.cpp:157] Top shape: 1 24 (24)
I0415 09:26:10.775655 17038 net.cpp:157] Top shape: 1 24 (24)
I0415 09:26:10.775657 17038 net.cpp:157] Top shape: 1 24 (24)
I0415 09:26:10.775660 17038 net.cpp:165] Memory required for data: 1423271824
I0415 09:26:10.775661 17038 layer_factory.hpp:77] Creating layer roi_pool5
I0415 09:26:10.775667 17038 net.cpp:100] Creating Layer roi_pool5
I0415 09:26:10.775671 17038 net.cpp:444] roi_pool5 <- conv5_3_relu5_3_0_split_1
I0415 09:26:10.775674 17038 net.cpp:444] roi_pool5 <- rois
I0415 09:26:10.775677 17038 net.cpp:418] roi_pool5 -> pool5
I0415 09:26:10.775683 17038 roi_pooling_layer.cpp:25] Spatial scale: 0.0625
I0415 09:26:10.775712 17038 net.cpp:150] Setting up roi_pool5
I0415 09:26:10.775717 17038 net.cpp:157] Top shape: 1 512 7 7 (25088)
I0415 09:26:10.775719 17038 net.cpp:165] Memory required for data: 1423372176
I0415 09:26:10.775722 17038 layer_factory.hpp:77] Creating layer fc6
I0415 09:26:10.775727 17038 net.cpp:100] Creating Layer fc6
I0415 09:26:10.775728 17038 net.cpp:444] fc6 <- pool5
I0415 09:26:10.775732 17038 net.cpp:418] fc6 -> fc6
I0415 09:26:10.898917 17038 net.cpp:150] Setting up fc6
I0415 09:26:10.898939 17038 net.cpp:157] Top shape: 1 4096 (4096)
I0415 09:26:10.898941 17038 net.cpp:165] Memory required for data: 1423388560
I0415 09:26:10.898967 17038 layer_factory.hpp:77] Creating layer relu6
I0415 09:26:10.898974 17038 net.cpp:100] Creating Layer relu6
I0415 09:26:10.898978 17038 net.cpp:444] relu6 <- fc6
I0415 09:26:10.898983 17038 net.cpp:405] relu6 -> fc6 (in-place)
I0415 09:26:10.899133 17038 net.cpp:150] Setting up relu6
I0415 09:26:10.899139 17038 net.cpp:157] Top shape: 1 4096 (4096)
I0415 09:26:10.899142 17038 net.cpp:165] Memory required for data: 1423404944
I0415 09:26:10.899143 17038 layer_factory.hpp:77] Creating layer drop6
I0415 09:26:10.899148 17038 net.cpp:100] Creating Layer drop6
I0415 09:26:10.899150 17038 net.cpp:444] drop6 <- fc6
I0415 09:26:10.899152 17038 net.cpp:405] drop6 -> fc6 (in-place)
I0415 09:26:10.899171 17038 net.cpp:150] Setting up drop6
I0415 09:26:10.899174 17038 net.cpp:157] Top shape: 1 4096 (4096)
I0415 09:26:10.899190 17038 net.cpp:165] Memory required for data: 1423421328
I0415 09:26:10.899193 17038 layer_factory.hpp:77] Creating layer fc7
I0415 09:26:10.899197 17038 net.cpp:100] Creating Layer fc7
I0415 09:26:10.899199 17038 net.cpp:444] fc7 <- fc6
I0415 09:26:10.899202 17038 net.cpp:418] fc7 -> fc7
I0415 09:26:10.919692 17038 net.cpp:150] Setting up fc7
I0415 09:26:10.919715 17038 net.cpp:157] Top shape: 1 4096 (4096)
I0415 09:26:10.919718 17038 net.cpp:165] Memory required for data: 1423437712
I0415 09:26:10.919740 17038 layer_factory.hpp:77] Creating layer relu7
I0415 09:26:10.919749 17038 net.cpp:100] Creating Layer relu7
I0415 09:26:10.919752 17038 net.cpp:444] relu7 <- fc7
I0415 09:26:10.919756 17038 net.cpp:405] relu7 -> fc7 (in-place)
I0415 09:26:10.919906 17038 net.cpp:150] Setting up relu7
I0415 09:26:10.919911 17038 net.cpp:157] Top shape: 1 4096 (4096)
I0415 09:26:10.919929 17038 net.cpp:165] Memory required for data: 1423454096
I0415 09:26:10.919930 17038 layer_factory.hpp:77] Creating layer drop7
I0415 09:26:10.919934 17038 net.cpp:100] Creating Layer drop7
I0415 09:26:10.919937 17038 net.cpp:444] drop7 <- fc7
I0415 09:26:10.919939 17038 net.cpp:405] drop7 -> fc7 (in-place)
I0415 09:26:10.919957 17038 net.cpp:150] Setting up drop7
I0415 09:26:10.919961 17038 net.cpp:157] Top shape: 1 4096 (4096)
I0415 09:26:10.919963 17038 net.cpp:165] Memory required for data: 1423470480
I0415 09:26:10.919965 17038 layer_factory.hpp:77] Creating layer fc7_drop7_0_split
I0415 09:26:10.919981 17038 net.cpp:100] Creating Layer fc7_drop7_0_split
I0415 09:26:10.919983 17038 net.cpp:444] fc7_drop7_0_split <- fc7
I0415 09:26:10.919986 17038 net.cpp:418] fc7_drop7_0_split -> fc7_drop7_0_split_0
I0415 09:26:10.919989 17038 net.cpp:418] fc7_drop7_0_split -> fc7_drop7_0_split_1
I0415 09:26:10.920027 17038 net.cpp:150] Setting up fc7_drop7_0_split
I0415 09:26:10.920032 17038 net.cpp:157] Top shape: 1 4096 (4096)
I0415 09:26:10.920034 17038 net.cpp:157] Top shape: 1 4096 (4096)
I0415 09:26:10.920037 17038 net.cpp:165] Memory required for data: 1423503248
I0415 09:26:10.920038 17038 layer_factory.hpp:77] Creating layer my_cls_score
I0415 09:26:10.920043 17038 net.cpp:100] Creating Layer my_cls_score
I0415 09:26:10.920047 17038 net.cpp:444] my_cls_score <- fc7_drop7_0_split_0
I0415 09:26:10.920050 17038 net.cpp:418] my_cls_score -> my_cls_score
I0415 09:26:10.920761 17038 net.cpp:150] Setting up my_cls_score
I0415 09:26:10.920766 17038 net.cpp:157] Top shape: 1 6 (6)
I0415 09:26:10.920768 17038 net.cpp:165] Memory required for data: 1423503272
I0415 09:26:10.920773 17038 layer_factory.hpp:77] Creating layer my_bbox_pred
I0415 09:26:10.920776 17038 net.cpp:100] Creating Layer my_bbox_pred
I0415 09:26:10.920778 17038 net.cpp:444] my_bbox_pred <- fc7_drop7_0_split_1
I0415 09:26:10.920795 17038 net.cpp:418] my_bbox_pred -> my_bbox_pred
I0415 09:26:10.922931 17038 net.cpp:150] Setting up my_bbox_pred
I0415 09:26:10.922936 17038 net.cpp:157] Top shape: 1 24 (24)
I0415 09:26:10.922938 17038 net.cpp:165] Memory required for data: 1423503368
I0415 09:26:10.922942 17038 layer_factory.hpp:77] Creating layer loss_cls
I0415 09:26:10.922946 17038 net.cpp:100] Creating Layer loss_cls
I0415 09:26:10.922948 17038 net.cpp:444] loss_cls <- my_cls_score
I0415 09:26:10.922966 17038 net.cpp:444] loss_cls <- labels
I0415 09:26:10.922968 17038 net.cpp:418] loss_cls -> loss_cls
…
