…
snapshot_prefix: "vgg16_faster_rcnn"
average_loss: 100
iter_size: 2
I0416 20:49:31.433179 32198 solver.cpp:81] Creating training net from train_net file: models/pascal_voc/VGG16/faster_rcnn_end2end/train.prototxt
I0416 20:49:31.433975 32198 net.cpp:58] Initializing net from parameters: 
name: "VGG_ILSVRC_16_layers"
state {
  phase: TRAIN
}
layer {
  name: "input-data"
  type: "Python"
  top: "data"
  top: "im_info"
  top: "gt_boxes"
  python_param {
    module: "roi_data_layer.layer"
    layer: "RoIDataLayer"
    param_str: "\'num_classes\': 6"
  }
}
layer {
  name: "conv1_1"
  type: "Convolution"
  bottom: "data"
  top: "conv1_1"
  param {
    lr_mult: 0
    decay_mult: 0
  }
  param {
    lr_mult: 0
    decay_mult: 0
  }
  convolution_param {
    num_output: 64
    pad: 1
    kernel_size: 3
  }
}
layer {
  name: "relu1_1"
  type: "ReLU"
  bottom: "conv1_1"
  top: "conv1_1"
}
layer {
  name: "conv1_2"
  type: "Convolution"
  bottom: "conv1_1"
  top: "conv1_2"
  param {
    lr_mult: 0
    decay_mult: 0
  }
  param {
    lr_mult: 0
    decay_mult: 0
  }
  convolution_param {
    num_output: 64
    pad: 1
    kernel_size: 3
  }
}
layer {
  name: "relu1_2"
  type: "ReLU"
  bottom: "conv1_2"
  top: "conv1_2"
}
layer {
  name: "pool1"
  type: "Pooling"
  bottom: "conv1_2"
  top: "pool1"
  pooling_param {
    pool: MAX
    kernel_size: 2
    stride: 2
  }
}
layer {
  name: "conv2_1"
  type: "Convolution"
  bottom: "pool1"
  top: "conv2_1"
  param {
    lr_mult: 0
    decay_mult: 0
  }
  param {
    lr_mult: 0
    decay_mult: 0
  }
  convolution_param {
    num_output: 128
    pad: 1
    kernel_size: 3
  }
}
layer {
  name: "relu2_1"
  type: "ReLU"
  bottom: "conv2_1"
  top: "conv2_1"
}
layer {
  name: "conv2_2"
  type: "Convolution"
  bottom: "conv2_1"
  top: "conv2_2"
  param {
    lr_mult: 0
    decay_mult: 0
  }
  param {
    lr_mult: 0
    decay_mult: 0
  }
  convolution_param {
    num_output: 128
    pad: 1
    kernel_size: 3
  }
}
layer {
  name: "relu2_2"
  type: "ReLU"
  bottom: "conv2_2"
  top: "conv2_2"
}
layer {
  name: "pool2"
  type: "Pooling"
  bottom: "conv2_2"
  top: "pool2"
  pooling_param {
    pool: MAX
    kernel_size: 2
    stride: 2
  }
}
layer {
  name: "conv3_1"
  type: "Convolution"
  bottom: "pool2"
  top: "conv3_1"
  param {
    lr_mult: 1
  }
  param {
    lr_mult: 2
  }
  convolution_param {
    num_output: 256
    pad: 1
    kernel_size: 3
  }
}
layer {
  name: "relu3_1"
  type: "ReLU"
  bottom: "conv3_1"
  top: "conv3_1"
}
layer {
  name: "conv3_2"
  type: "Convolution"
  bottom: "conv3_1"
  top: "conv3_2"
  param {
    lr_mult: 1
  }
  param {
    lr_mult: 2
  }
  convolution_param {
    num_output: 256
    pad: 1
    kernel_size: 3
  }
}
layer {
  name: "relu3_2"
  type: "ReLU"
  bottom: "conv3_2"
  top: "conv3_2"
}
layer {
  name: "conv3_3"
  type: "Convolution"
  bottom: "conv3_2"
  top: "conv3_3"
  param {
    lr_mult: 1
  }
  param {
    lr_mult: 2
  }
  convolution_param {
    num_output: 256
    pad: 1
    kernel_size: 3
  }
}
layer {
  name: "relu3_3"
  type: "ReLU"
  bottom: "conv3_3"
  top: "conv3_3"
}
layer {
  name: "pool3"
  type: "Pooling"
  bottom: "conv3_3"
  top: "pool3"
  pooling_param {
    pool: MAX
    kernel_size: 2
    stride: 2
  }
}
layer {
  name: "conv4_1"
  type: "Convolution"
  bottom: "pool3"
  top: "conv4_1"
  param {
    lr_mult: 1
  }
  param {
    lr_mult: 2
  }
  convolution_param {
    num_output: 512
    pad: 1
    kernel_size: 3
  }
}
layer {
  name: "relu4_1"
  type: "ReLU"
  bottom: "conv4_1"
  top: "conv4_1"
}
layer {
  name: "conv4_2"
  type: "Convolution"
  bottom: "conv4_1"
  top: "conv4_2"
  param {
    lr_mult: 1
  }
  param {
    lr_mult: 2
  }
  convolution_param {
    num_output: 512
    pad: 1
    kernel_size: 3
  }
}
layer {
  name: "relu4_2"
  type: "ReLU"
  bottom: "conv4_2"
  top: "conv4_2"
}
layer {
  name: "conv4_3"
  type: "Convolution"
  bottom: "conv4_2"
  top: "conv4_3"
  param {
    lr_mult: 1
  }
  param {
    lr_mult: 2
  }
  convolution_param {
    num_output: 512
    pad: 1
    kernel_size: 3
  }
}
layer {
  name: "relu4_3"
  type: "ReLU"
  bottom: "conv4_3"
  top: "conv4_3"
}
layer {
  name: "pool4"
  type: "Pooling"
  bottom: "conv4_3"
  top: "pool4"
  pooling_param {
    pool: MAX
    kernel_size: 2
    stride: 2
  }
}
layer {
  name: "conv5_1"
  type: "Convolution"
  bottom: "pool4"
  top: "conv5_1"
  param {
    lr_mult: 1
  }
  param {
    lr_mult: 2
  }
  convolution_param {
    num_output: 512
    pad: 1
    kernel_size: 3
  }
}
layer {
  name: "relu5_1"
  type: "ReLU"
  bottom: "conv5_1"
  top: "conv5_1"
}
layer {
  name: "conv5_2"
  type: "Convolution"
  bottom: "conv5_1"
  top: "conv5_2"
  param {
    lr_mult: 1
  }
  param {
    lr_mult: 2
  }
  convolution_param {
    num_output: 512
    pad: 1
    kernel_size: 3
  }
}
layer {
  name: "relu5_2"
  type: "ReLU"
  bottom: "conv5_2"
  top: "conv5_2"
}
layer {
  name: "conv5_3"
  type: "Convolution"
  bottom: "conv5_2"
  top: "conv5_3"
  param {
    lr_mult: 1
  }
  param {
    lr_mult: 2
  }
  convolution_param {
    num_output: 512
    pad: 1
    kernel_size: 3
  }
}
layer {
  name: "relu5_3"
  type: "ReLU"
  bottom: "conv5_3"
  top: "conv5_3"
}
layer {
  name: "rpn_conv/3x3"
  type: "Convolution"
  bottom: "conv5_3"
  top: "rpn/output"
  param {
    lr_mult: 1
  }
  param {
    lr_mult: 2
  }
  convolution_param {
    num_output: 512
    pad: 1
    kernel_size: 3
    stride: 1
    weight_filler {
      type: "gaussian"
      std: 0.01
    }
    bias_filler {
      type: "constant"
      value: 0
    }
  }
}
layer {
  name: "rpn_relu/3x3"
  type: "ReLU"
  bottom: "rpn/output"
  top: "rpn/output"
}
layer {
  name: "rpn_cls_score"
  type: "Convolution"
  bottom: "rpn/output"
  top: "rpn_cls_score"
  param {
    lr_mult: 1
  }
  param {
    lr_mult: 2
  }
  convolution_param {
    num_output: 18
    pad: 0
    kernel_size: 1
    stride: 1
    weight_filler {
      type: "gaussian"
      std: 0.01
    }
    bias_filler {
      type: "constant"
      value: 0
    }
  }
}
layer {
  name: "rpn_bbox_pred"
  type: "Convolution"
  bottom: "rpn/output"
  top: "rpn_bbox_pred"
  param {
    lr_mult: 1
  }
  param {
    lr_mult: 2
  }
  convolution_param {
    num_output: 36
    pad: 0
    kernel_size: 1
    stride: 1
    weight_filler {
      type: "gaussian"
      std: 0.01
    }
    bias_filler {
      type: "constant"
      value: 0
    }
  }
}
layer {
  name: "rpn_cls_score_reshape"
  type: "Reshape"
  bottom: "rpn_cls_score"
  top: "rpn_cls_score_reshape"
  reshape_param {
    shape {
      dim: 0
      dim: 2
      dim: -1
      dim: 0
    }
  }
}
layer {
  name: "rpn-data"
  type: "Python"
  bottom: "rpn_cls_score"
  bottom: "gt_boxes"
  bottom: "im_info"
  bottom: "data"
  top: "rpn_labels"
  top: "rpn_bbox_targets"
  top: "rpn_bbox_inside_weights"
  top: "rpn_bbox_outside_weights"
  python_param {
    module: "rpn.anchor_target_layer"
    layer: "AnchorTargetLayer"
    param_str: "\'feat_stride\': 16"
  }
}
layer {
  name: "rpn_loss_cls"
  type: "SoftmaxWithLoss"
  bottom: "rpn_cls_score_reshape"
  bottom: "rpn_labels"
  top: "rpn_cls_loss"
  loss_weight: 1
  propagate_down: true
  propagate_down: false
  loss_param {
    ignore_label: -1
    normalize: true
  }
}
layer {
  name: "rpn_loss_bbox"
  type: "SmoothL1Loss"
  bottom: "rpn_bbox_pred"
  bottom: "rpn_bbox_targets"
  bottom: "rpn_bbox_inside_weights"
  bottom: "rpn_bbox_outside_weights"
  top: "rpn_loss_bbox"
  loss_weight: 1
  smooth_l1_loss_param {
    sigma: 3
  }
}
layer {
  name: "rpn_cls_prob"
  type: "Softmax"
  bottom: "rpn_cls_score_reshape"
  top: "rpn_cls_prob"
}
layer {
  name: "rpn_cls_prob_reshape"
  type: "Reshape"
  bottom: "rpn_cls_prob"
  top: "rpn_cls_prob_reshape"
  reshape_param {
    shape {
      dim: 0
      dim: 18
      dim: -1
      dim: 0
    }
  }
}
layer {
  name: "proposal"
  type: "Python"
  bottom: "rpn_cls_prob_reshape"
  bottom: "rpn_bbox_pred"
  bottom: "im_info"
  top: "rpn_rois"
  python_param {
    module: "rpn.proposal_layer"
    layer: "ProposalLayer"
    param_str: "\'feat_stride\': 16"
  }
}
layer {
  name: "roi-data"
  type: "Python"
  bottom: "rpn_rois"
  bottom: "gt_boxes"
  top: "rois"
  top: "labels"
  top: "bbox_targets"
  top: "bbox_inside_weights"
  top: "bbox_outside_weights"
  python_param {
    module: "rpn.proposal_target_layer"
    layer: "ProposalTargetLayer"
    param_str: "\'num_classes\': 6"
  }
}
layer {
  name: "roi_pool5"
  type: "ROIPooling"
  bottom: "conv5_3"
  bottom: "rois"
  top: "pool5"
  roi_pooling_param {
    pooled_h: 7
    pooled_w: 7
    spatial_scale: 0.0625
  }
}
layer {
  name: "fc6"
  type: "InnerProduct"
  bottom: "pool5"
  top: "fc6"
  param {
    lr_mult: 1
  }
  param {
    lr_mult: 2
  }
  inner_product_param {
    num_output: 4096
  }
}
layer {
  name: "relu6"
  type: "ReLU"
  bottom: "fc6"
  top: "fc6"
}
layer {
  name: "drop6"
  type: "Dropout"
  bottom: "fc6"
  top: "fc6"
  dropout_param {
    dropout_ratio: 0.5
  }
}
layer {
  name: "fc7"
  type: "InnerProduct"
  bottom: "fc6"
  top: "fc7"
  param {
    lr_mult: 1
  }
  param {
    lr_mult: 2
  }
  inner_product_param {
    num_output: 4096
  }
}
layer {
  name: "relu7"
  type: "ReLU"
  bottom: "fc7"
  top: "fc7"
}
layer {
  name: "drop7"
  type: "Dropout"
  bottom: "fc7"
  top: "fc7"
  dropout_param {
    dropout_ratio: 0.5
  }
}
layer {
  name: "my_cls_score"
  type: "InnerProduct"
  bottom: "fc7"
  top: "my_cls_score"
  param {
    lr_mult: 1
  }
  param {
    lr_mult: 2
  }
  inner_product_param {
    num_output: 6
    weight_filler {
      type: "gaussian"
      std: 0.01
    }
    bias_filler {
      type: "constant"
      value: 0
    }
  }
}
layer {
  name: "my_bbox_pred"
  type: "InnerProduct"
  bottom: "fc7"
  top: "my_bbox_pred"
  param {
    lr_mult: 1
  }
  param {
    lr_mult: 2
  }
  inner_product_param {
    num_output: 24
    weight_filler {
      type: "gaussian"
      std: 0.001
    }
    bias_filler {
      type: "constant"
      value: 0
    }
  }
}
layer {
  name: "loss_cls"
  type: "SoftmaxWithLoss"
  bottom: "my_cls_score"
  bottom: "labels"
  top: "loss_cls"
  loss_weight: 1
  propagate_down: true
  propagate_down: false
}
layer {
  name: "loss_bbox"
  type: "SmoothL1Loss"
  bottom: "my_bbox_pred"
  bottom: "bbox_targets"
  bottom: "bbox_inside_weights"
  bottom: "bbox_outside_weights"
  top: "loss_bbox"
  loss_weight: 1
}
I0416 20:49:31.434145 32198 layer_factory.hpp:77] Creating layer input-data
I0416 20:49:31.451977 32198 net.cpp:100] Creating Layer input-data
I0416 20:49:31.452010 32198 net.cpp:418] input-data -> data
I0416 20:49:31.452023 32198 net.cpp:418] input-data -> im_info
I0416 20:49:31.452028 32198 net.cpp:418] input-data -> gt_boxes
I0416 20:49:31.551754 32198 net.cpp:150] Setting up input-data
I0416 20:49:31.551774 32198 net.cpp:157] Top shape: 1 3 600 1000 (1800000)
I0416 20:49:31.551779 32198 net.cpp:157] Top shape: 1 3 (3)
I0416 20:49:31.551780 32198 net.cpp:157] Top shape: 1 4 (4)
I0416 20:49:31.551782 32198 net.cpp:165] Memory required for data: 7200028
I0416 20:49:31.551787 32198 layer_factory.hpp:77] Creating layer data_input-data_0_split
I0416 20:49:31.551798 32198 net.cpp:100] Creating Layer data_input-data_0_split
I0416 20:49:31.551800 32198 net.cpp:444] data_input-data_0_split <- data
I0416 20:49:31.551805 32198 net.cpp:418] data_input-data_0_split -> data_input-data_0_split_0
I0416 20:49:31.551826 32198 net.cpp:418] data_input-data_0_split -> data_input-data_0_split_1
I0416 20:49:31.551853 32198 net.cpp:150] Setting up data_input-data_0_split
I0416 20:49:31.551858 32198 net.cpp:157] Top shape: 1 3 600 1000 (1800000)
I0416 20:49:31.551862 32198 net.cpp:157] Top shape: 1 3 600 1000 (1800000)
I0416 20:49:31.551863 32198 net.cpp:165] Memory required for data: 21600028
I0416 20:49:31.551865 32198 layer_factory.hpp:77] Creating layer im_info_input-data_1_split
I0416 20:49:31.551882 32198 net.cpp:100] Creating Layer im_info_input-data_1_split
I0416 20:49:31.551883 32198 net.cpp:444] im_info_input-data_1_split <- im_info
I0416 20:49:31.551887 32198 net.cpp:418] im_info_input-data_1_split -> im_info_input-data_1_split_0
I0416 20:49:31.551904 32198 net.cpp:418] im_info_input-data_1_split -> im_info_input-data_1_split_1
I0416 20:49:31.551923 32198 net.cpp:150] Setting up im_info_input-data_1_split
I0416 20:49:31.551928 32198 net.cpp:157] Top shape: 1 3 (3)
I0416 20:49:31.551934 32198 net.cpp:157] Top shape: 1 3 (3)
I0416 20:49:31.551936 32198 net.cpp:165] Memory required for data: 21600052
I0416 20:49:31.551939 32198 layer_factory.hpp:77] Creating layer gt_boxes_input-data_2_split
I0416 20:49:31.551941 32198 net.cpp:100] Creating Layer gt_boxes_input-data_2_split
I0416 20:49:31.551946 32198 net.cpp:444] gt_boxes_input-data_2_split <- gt_boxes
I0416 20:49:31.551949 32198 net.cpp:418] gt_boxes_input-data_2_split -> gt_boxes_input-data_2_split_0
I0416 20:49:31.551954 32198 net.cpp:418] gt_boxes_input-data_2_split -> gt_boxes_input-data_2_split_1
I0416 20:49:31.551972 32198 net.cpp:150] Setting up gt_boxes_input-data_2_split
I0416 20:49:31.551976 32198 net.cpp:157] Top shape: 1 4 (4)
I0416 20:49:31.551978 32198 net.cpp:157] Top shape: 1 4 (4)
I0416 20:49:31.551993 32198 net.cpp:165] Memory required for data: 21600084
I0416 20:49:31.551995 32198 layer_factory.hpp:77] Creating layer conv1_1
I0416 20:49:31.552021 32198 net.cpp:100] Creating Layer conv1_1
I0416 20:49:31.552022 32198 net.cpp:444] conv1_1 <- data_input-data_0_split_0
I0416 20:49:31.552026 32198 net.cpp:418] conv1_1 -> conv1_1
I0416 20:49:31.953560 32198 net.cpp:150] Setting up conv1_1
I0416 20:49:31.953596 32198 net.cpp:157] Top shape: 1 64 600 1000 (38400000)
I0416 20:49:31.953600 32198 net.cpp:165] Memory required for data: 175200084
I0416 20:49:31.953611 32198 layer_factory.hpp:77] Creating layer relu1_1
I0416 20:49:31.953619 32198 net.cpp:100] Creating Layer relu1_1
I0416 20:49:31.953622 32198 net.cpp:444] relu1_1 <- conv1_1
I0416 20:49:31.953626 32198 net.cpp:405] relu1_1 -> conv1_1 (in-place)
I0416 20:49:31.954661 32198 net.cpp:150] Setting up relu1_1
I0416 20:49:31.954684 32198 net.cpp:157] Top shape: 1 64 600 1000 (38400000)
I0416 20:49:31.954686 32198 net.cpp:165] Memory required for data: 328800084
I0416 20:49:31.954689 32198 layer_factory.hpp:77] Creating layer conv1_2
I0416 20:49:31.954695 32198 net.cpp:100] Creating Layer conv1_2
I0416 20:49:31.954699 32198 net.cpp:444] conv1_2 <- conv1_1
I0416 20:49:31.954702 32198 net.cpp:418] conv1_2 -> conv1_2
I0416 20:49:31.962249 32198 net.cpp:150] Setting up conv1_2
I0416 20:49:31.962285 32198 net.cpp:157] Top shape: 1 64 600 1000 (38400000)
I0416 20:49:31.962287 32198 net.cpp:165] Memory required for data: 482400084
I0416 20:49:31.962298 32198 layer_factory.hpp:77] Creating layer relu1_2
I0416 20:49:31.962306 32198 net.cpp:100] Creating Layer relu1_2
I0416 20:49:31.962324 32198 net.cpp:444] relu1_2 <- conv1_2
I0416 20:49:31.962337 32198 net.cpp:405] relu1_2 -> conv1_2 (in-place)
I0416 20:49:31.963534 32198 net.cpp:150] Setting up relu1_2
I0416 20:49:31.963542 32198 net.cpp:157] Top shape: 1 64 600 1000 (38400000)
I0416 20:49:31.963558 32198 net.cpp:165] Memory required for data: 636000084
I0416 20:49:31.963562 32198 layer_factory.hpp:77] Creating layer pool1
I0416 20:49:31.963567 32198 net.cpp:100] Creating Layer pool1
I0416 20:49:31.963569 32198 net.cpp:444] pool1 <- conv1_2
I0416 20:49:31.963573 32198 net.cpp:418] pool1 -> pool1
I0416 20:49:31.963603 32198 net.cpp:150] Setting up pool1
I0416 20:49:31.963616 32198 net.cpp:157] Top shape: 1 64 300 500 (9600000)
I0416 20:49:31.963625 32198 net.cpp:165] Memory required for data: 674400084
I0416 20:49:31.963632 32198 layer_factory.hpp:77] Creating layer conv2_1
I0416 20:49:31.963644 32198 net.cpp:100] Creating Layer conv2_1
I0416 20:49:31.963652 32198 net.cpp:444] conv2_1 <- pool1
I0416 20:49:31.963666 32198 net.cpp:418] conv2_1 -> conv2_1
I0416 20:49:31.970667 32198 net.cpp:150] Setting up conv2_1
I0416 20:49:31.970701 32198 net.cpp:157] Top shape: 1 128 300 500 (19200000)
I0416 20:49:31.970705 32198 net.cpp:165] Memory required for data: 751200084
I0416 20:49:31.970894 32198 layer_factory.hpp:77] Creating layer relu2_1
I0416 20:49:31.970907 32198 net.cpp:100] Creating Layer relu2_1
I0416 20:49:31.970911 32198 net.cpp:444] relu2_1 <- conv2_1
I0416 20:49:31.970916 32198 net.cpp:405] relu2_1 -> conv2_1 (in-place)
I0416 20:49:31.972426 32198 net.cpp:150] Setting up relu2_1
I0416 20:49:31.972451 32198 net.cpp:157] Top shape: 1 128 300 500 (19200000)
I0416 20:49:31.972453 32198 net.cpp:165] Memory required for data: 828000084
I0416 20:49:31.972456 32198 layer_factory.hpp:77] Creating layer conv2_2
I0416 20:49:31.972463 32198 net.cpp:100] Creating Layer conv2_2
I0416 20:49:31.972466 32198 net.cpp:444] conv2_2 <- conv2_1
I0416 20:49:31.972470 32198 net.cpp:418] conv2_2 -> conv2_2
I0416 20:49:31.979482 32198 net.cpp:150] Setting up conv2_2
I0416 20:49:31.979511 32198 net.cpp:157] Top shape: 1 128 300 500 (19200000)
I0416 20:49:31.979514 32198 net.cpp:165] Memory required for data: 904800084
I0416 20:49:31.979521 32198 layer_factory.hpp:77] Creating layer relu2_2
I0416 20:49:31.979527 32198 net.cpp:100] Creating Layer relu2_2
I0416 20:49:31.979532 32198 net.cpp:444] relu2_2 <- conv2_2
I0416 20:49:31.979534 32198 net.cpp:405] relu2_2 -> conv2_2 (in-place)
I0416 20:49:31.981323 32198 net.cpp:150] Setting up relu2_2
I0416 20:49:31.981333 32198 net.cpp:157] Top shape: 1 128 300 500 (19200000)
I0416 20:49:31.981349 32198 net.cpp:165] Memory required for data: 981600084
I0416 20:49:31.981351 32198 layer_factory.hpp:77] Creating layer pool2
I0416 20:49:31.981358 32198 net.cpp:100] Creating Layer pool2
I0416 20:49:31.981360 32198 net.cpp:444] pool2 <- conv2_2
I0416 20:49:31.981364 32198 net.cpp:418] pool2 -> pool2
I0416 20:49:31.981395 32198 net.cpp:150] Setting up pool2
I0416 20:49:31.981400 32198 net.cpp:157] Top shape: 1 128 150 250 (4800000)
I0416 20:49:31.981402 32198 net.cpp:165] Memory required for data: 1000800084
I0416 20:49:31.981405 32198 layer_factory.hpp:77] Creating layer conv3_1
I0416 20:49:31.981410 32198 net.cpp:100] Creating Layer conv3_1
I0416 20:49:31.981412 32198 net.cpp:444] conv3_1 <- pool2
I0416 20:49:31.981415 32198 net.cpp:418] conv3_1 -> conv3_1
I0416 20:49:31.985723 32198 net.cpp:150] Setting up conv3_1
I0416 20:49:31.985754 32198 net.cpp:157] Top shape: 1 256 150 250 (9600000)
I0416 20:49:31.985757 32198 net.cpp:165] Memory required for data: 1039200084
I0416 20:49:31.985767 32198 layer_factory.hpp:77] Creating layer relu3_1
I0416 20:49:31.985774 32198 net.cpp:100] Creating Layer relu3_1
I0416 20:49:31.985776 32198 net.cpp:444] relu3_1 <- conv3_1
I0416 20:49:31.985780 32198 net.cpp:405] relu3_1 -> conv3_1 (in-place)
I0416 20:49:31.985893 32198 net.cpp:150] Setting up relu3_1
I0416 20:49:31.985900 32198 net.cpp:157] Top shape: 1 256 150 250 (9600000)
I0416 20:49:31.985903 32198 net.cpp:165] Memory required for data: 1077600084
I0416 20:49:31.985904 32198 layer_factory.hpp:77] Creating layer conv3_2
I0416 20:49:31.985913 32198 net.cpp:100] Creating Layer conv3_2
I0416 20:49:31.985914 32198 net.cpp:444] conv3_2 <- conv3_1
I0416 20:49:31.985918 32198 net.cpp:418] conv3_2 -> conv3_2
I0416 20:49:31.987778 32198 net.cpp:150] Setting up conv3_2
I0416 20:49:31.987814 32198 net.cpp:157] Top shape: 1 256 150 250 (9600000)
I0416 20:49:31.987818 32198 net.cpp:165] Memory required for data: 1116000084
I0416 20:49:31.987825 32198 layer_factory.hpp:77] Creating layer relu3_2
I0416 20:49:31.987833 32198 net.cpp:100] Creating Layer relu3_2
I0416 20:49:31.987836 32198 net.cpp:444] relu3_2 <- conv3_2
I0416 20:49:31.987840 32198 net.cpp:405] relu3_2 -> conv3_2 (in-place)
I0416 20:49:31.987969 32198 net.cpp:150] Setting up relu3_2
I0416 20:49:31.987977 32198 net.cpp:157] Top shape: 1 256 150 250 (9600000)
I0416 20:49:31.987979 32198 net.cpp:165] Memory required for data: 1154400084
I0416 20:49:31.987982 32198 layer_factory.hpp:77] Creating layer conv3_3
I0416 20:49:31.987990 32198 net.cpp:100] Creating Layer conv3_3
I0416 20:49:31.987993 32198 net.cpp:444] conv3_3 <- conv3_2
I0416 20:49:31.987998 32198 net.cpp:418] conv3_3 -> conv3_3
I0416 20:49:31.990787 32198 net.cpp:150] Setting up conv3_3
I0416 20:49:31.990820 32198 net.cpp:157] Top shape: 1 256 150 250 (9600000)
I0416 20:49:31.990823 32198 net.cpp:165] Memory required for data: 1192800084
I0416 20:49:31.990831 32198 layer_factory.hpp:77] Creating layer relu3_3
I0416 20:49:31.990841 32198 net.cpp:100] Creating Layer relu3_3
I0416 20:49:31.990844 32198 net.cpp:444] relu3_3 <- conv3_3
I0416 20:49:31.990849 32198 net.cpp:405] relu3_3 -> conv3_3 (in-place)
I0416 20:49:31.992646 32198 net.cpp:150] Setting up relu3_3
I0416 20:49:31.992672 32198 net.cpp:157] Top shape: 1 256 150 250 (9600000)
I0416 20:49:31.992676 32198 net.cpp:165] Memory required for data: 1231200084
I0416 20:49:31.992679 32198 layer_factory.hpp:77] Creating layer pool3
I0416 20:49:31.992686 32198 net.cpp:100] Creating Layer pool3
I0416 20:49:31.992689 32198 net.cpp:444] pool3 <- conv3_3
I0416 20:49:31.992694 32198 net.cpp:418] pool3 -> pool3
I0416 20:49:31.992734 32198 net.cpp:150] Setting up pool3
I0416 20:49:31.992740 32198 net.cpp:157] Top shape: 1 256 75 125 (2400000)
I0416 20:49:31.992743 32198 net.cpp:165] Memory required for data: 1240800084
I0416 20:49:31.992744 32198 layer_factory.hpp:77] Creating layer conv4_1
I0416 20:49:31.992753 32198 net.cpp:100] Creating Layer conv4_1
I0416 20:49:31.992755 32198 net.cpp:444] conv4_1 <- pool3
I0416 20:49:31.992758 32198 net.cpp:418] conv4_1 -> conv4_1
I0416 20:49:31.997054 32198 net.cpp:150] Setting up conv4_1
I0416 20:49:31.997092 32198 net.cpp:157] Top shape: 1 512 75 125 (4800000)
I0416 20:49:31.997095 32198 net.cpp:165] Memory required for data: 1260000084
I0416 20:49:31.997103 32198 layer_factory.hpp:77] Creating layer relu4_1
I0416 20:49:31.997112 32198 net.cpp:100] Creating Layer relu4_1
I0416 20:49:31.997115 32198 net.cpp:444] relu4_1 <- conv4_1
I0416 20:49:31.997120 32198 net.cpp:405] relu4_1 -> conv4_1 (in-place)
I0416 20:49:31.997246 32198 net.cpp:150] Setting up relu4_1
I0416 20:49:31.997254 32198 net.cpp:157] Top shape: 1 512 75 125 (4800000)
I0416 20:49:31.997256 32198 net.cpp:165] Memory required for data: 1279200084
I0416 20:49:31.997258 32198 layer_factory.hpp:77] Creating layer conv4_2
I0416 20:49:31.997267 32198 net.cpp:100] Creating Layer conv4_2
I0416 20:49:31.997269 32198 net.cpp:444] conv4_2 <- conv4_1
I0416 20:49:31.997273 32198 net.cpp:418] conv4_2 -> conv4_2
I0416 20:49:32.006728 32198 net.cpp:150] Setting up conv4_2
I0416 20:49:32.006768 32198 net.cpp:157] Top shape: 1 512 75 125 (4800000)
I0416 20:49:32.006772 32198 net.cpp:165] Memory required for data: 1298400084
I0416 20:49:32.006781 32198 layer_factory.hpp:77] Creating layer relu4_2
I0416 20:49:32.006790 32198 net.cpp:100] Creating Layer relu4_2
I0416 20:49:32.006793 32198 net.cpp:444] relu4_2 <- conv4_2
I0416 20:49:32.006798 32198 net.cpp:405] relu4_2 -> conv4_2 (in-place)
I0416 20:49:32.007226 32198 net.cpp:150] Setting up relu4_2
I0416 20:49:32.007238 32198 net.cpp:157] Top shape: 1 512 75 125 (4800000)
I0416 20:49:32.007254 32198 net.cpp:165] Memory required for data: 1317600084
I0416 20:49:32.007257 32198 layer_factory.hpp:77] Creating layer conv4_3
I0416 20:49:32.007266 32198 net.cpp:100] Creating Layer conv4_3
I0416 20:49:32.007268 32198 net.cpp:444] conv4_3 <- conv4_2
I0416 20:49:32.007273 32198 net.cpp:418] conv4_3 -> conv4_3
I0416 20:49:32.015249 32198 net.cpp:150] Setting up conv4_3
I0416 20:49:32.015290 32198 net.cpp:157] Top shape: 1 512 75 125 (4800000)
I0416 20:49:32.015291 32198 net.cpp:165] Memory required for data: 1336800084
I0416 20:49:32.015300 32198 layer_factory.hpp:77] Creating layer relu4_3
I0416 20:49:32.015308 32198 net.cpp:100] Creating Layer relu4_3
I0416 20:49:32.015312 32198 net.cpp:444] relu4_3 <- conv4_3
I0416 20:49:32.015316 32198 net.cpp:405] relu4_3 -> conv4_3 (in-place)
I0416 20:49:32.017367 32198 net.cpp:150] Setting up relu4_3
I0416 20:49:32.017397 32198 net.cpp:157] Top shape: 1 512 75 125 (4800000)
I0416 20:49:32.017400 32198 net.cpp:165] Memory required for data: 1356000084
I0416 20:49:32.017403 32198 layer_factory.hpp:77] Creating layer pool4
I0416 20:49:32.017410 32198 net.cpp:100] Creating Layer pool4
I0416 20:49:32.017416 32198 net.cpp:444] pool4 <- conv4_3
I0416 20:49:32.017421 32198 net.cpp:418] pool4 -> pool4
I0416 20:49:32.017463 32198 net.cpp:150] Setting up pool4
I0416 20:49:32.017469 32198 net.cpp:157] Top shape: 1 512 38 63 (1225728)
I0416 20:49:32.017472 32198 net.cpp:165] Memory required for data: 1360902996
I0416 20:49:32.017474 32198 layer_factory.hpp:77] Creating layer conv5_1
I0416 20:49:32.017480 32198 net.cpp:100] Creating Layer conv5_1
I0416 20:49:32.017484 32198 net.cpp:444] conv5_1 <- pool4
I0416 20:49:32.017488 32198 net.cpp:418] conv5_1 -> conv5_1
I0416 20:49:32.025312 32198 net.cpp:150] Setting up conv5_1
I0416 20:49:32.025352 32198 net.cpp:157] Top shape: 1 512 38 63 (1225728)
I0416 20:49:32.025354 32198 net.cpp:165] Memory required for data: 1365805908
I0416 20:49:32.025365 32198 layer_factory.hpp:77] Creating layer relu5_1
I0416 20:49:32.025380 32198 net.cpp:100] Creating Layer relu5_1
I0416 20:49:32.025387 32198 net.cpp:444] relu5_1 <- conv5_1
I0416 20:49:32.025391 32198 net.cpp:405] relu5_1 -> conv5_1 (in-place)
I0416 20:49:32.027746 32198 net.cpp:150] Setting up relu5_1
I0416 20:49:32.027789 32198 net.cpp:157] Top shape: 1 512 38 63 (1225728)
I0416 20:49:32.027792 32198 net.cpp:165] Memory required for data: 1370708820
I0416 20:49:32.027797 32198 layer_factory.hpp:77] Creating layer conv5_2
I0416 20:49:32.027817 32198 net.cpp:100] Creating Layer conv5_2
I0416 20:49:32.027822 32198 net.cpp:444] conv5_2 <- conv5_1
I0416 20:49:32.027829 32198 net.cpp:418] conv5_2 -> conv5_2
I0416 20:49:32.034961 32198 net.cpp:150] Setting up conv5_2
I0416 20:49:32.034981 32198 net.cpp:157] Top shape: 1 512 38 63 (1225728)
I0416 20:49:32.034983 32198 net.cpp:165] Memory required for data: 1375611732
I0416 20:49:32.034991 32198 layer_factory.hpp:77] Creating layer relu5_2
I0416 20:49:32.034998 32198 net.cpp:100] Creating Layer relu5_2
I0416 20:49:32.035002 32198 net.cpp:444] relu5_2 <- conv5_2
I0416 20:49:32.035006 32198 net.cpp:405] relu5_2 -> conv5_2 (in-place)
I0416 20:49:32.037091 32198 net.cpp:150] Setting up relu5_2
I0416 20:49:32.037097 32198 net.cpp:157] Top shape: 1 512 38 63 (1225728)
I0416 20:49:32.037101 32198 net.cpp:165] Memory required for data: 1380514644
I0416 20:49:32.037102 32198 layer_factory.hpp:77] Creating layer conv5_3
I0416 20:49:32.037109 32198 net.cpp:100] Creating Layer conv5_3
I0416 20:49:32.037112 32198 net.cpp:444] conv5_3 <- conv5_2
I0416 20:49:32.037116 32198 net.cpp:418] conv5_3 -> conv5_3
I0416 20:49:32.044143 32198 net.cpp:150] Setting up conv5_3
I0416 20:49:32.044162 32198 net.cpp:157] Top shape: 1 512 38 63 (1225728)
I0416 20:49:32.044165 32198 net.cpp:165] Memory required for data: 1385417556
I0416 20:49:32.044186 32198 layer_factory.hpp:77] Creating layer relu5_3
I0416 20:49:32.044194 32198 net.cpp:100] Creating Layer relu5_3
I0416 20:49:32.044198 32198 net.cpp:444] relu5_3 <- conv5_3
I0416 20:49:32.044203 32198 net.cpp:405] relu5_3 -> conv5_3 (in-place)
I0416 20:49:32.046386 32198 net.cpp:150] Setting up relu5_3
I0416 20:49:32.046394 32198 net.cpp:157] Top shape: 1 512 38 63 (1225728)
I0416 20:49:32.046396 32198 net.cpp:165] Memory required for data: 1390320468
I0416 20:49:32.046398 32198 layer_factory.hpp:77] Creating layer conv5_3_relu5_3_0_split
I0416 20:49:32.046402 32198 net.cpp:100] Creating Layer conv5_3_relu5_3_0_split
I0416 20:49:32.046404 32198 net.cpp:444] conv5_3_relu5_3_0_split <- conv5_3
I0416 20:49:32.046408 32198 net.cpp:418] conv5_3_relu5_3_0_split -> conv5_3_relu5_3_0_split_0
I0416 20:49:32.046413 32198 net.cpp:418] conv5_3_relu5_3_0_split -> conv5_3_relu5_3_0_split_1
I0416 20:49:32.046456 32198 net.cpp:150] Setting up conv5_3_relu5_3_0_split
I0416 20:49:32.046461 32198 net.cpp:157] Top shape: 1 512 38 63 (1225728)
I0416 20:49:32.046464 32198 net.cpp:157] Top shape: 1 512 38 63 (1225728)
I0416 20:49:32.046466 32198 net.cpp:165] Memory required for data: 1400126292
I0416 20:49:32.046468 32198 layer_factory.hpp:77] Creating layer rpn_conv/3x3
I0416 20:49:32.046489 32198 net.cpp:100] Creating Layer rpn_conv/3x3
I0416 20:49:32.046505 32198 net.cpp:444] rpn_conv/3x3 <- conv5_3_relu5_3_0_split_0
I0416 20:49:32.046509 32198 net.cpp:418] rpn_conv/3x3 -> rpn/output
I0416 20:49:32.105062 32198 net.cpp:150] Setting up rpn_conv/3x3
I0416 20:49:32.105082 32198 net.cpp:157] Top shape: 1 512 38 63 (1225728)
I0416 20:49:32.105084 32198 net.cpp:165] Memory required for data: 1405029204
I0416 20:49:32.105092 32198 layer_factory.hpp:77] Creating layer rpn_relu/3x3
I0416 20:49:32.105098 32198 net.cpp:100] Creating Layer rpn_relu/3x3
I0416 20:49:32.105101 32198 net.cpp:444] rpn_relu/3x3 <- rpn/output
I0416 20:49:32.105106 32198 net.cpp:405] rpn_relu/3x3 -> rpn/output (in-place)
I0416 20:49:32.107018 32198 net.cpp:150] Setting up rpn_relu/3x3
I0416 20:49:32.107025 32198 net.cpp:157] Top shape: 1 512 38 63 (1225728)
I0416 20:49:32.107028 32198 net.cpp:165] Memory required for data: 1409932116
I0416 20:49:32.107030 32198 layer_factory.hpp:77] Creating layer rpn/output_rpn_relu/3x3_0_split
I0416 20:49:32.107034 32198 net.cpp:100] Creating Layer rpn/output_rpn_relu/3x3_0_split
I0416 20:49:32.107036 32198 net.cpp:444] rpn/output_rpn_relu/3x3_0_split <- rpn/output
I0416 20:49:32.107039 32198 net.cpp:418] rpn/output_rpn_relu/3x3_0_split -> rpn/output_rpn_relu/3x3_0_split_0
I0416 20:49:32.107044 32198 net.cpp:418] rpn/output_rpn_relu/3x3_0_split -> rpn/output_rpn_relu/3x3_0_split_1
I0416 20:49:32.107086 32198 net.cpp:150] Setting up rpn/output_rpn_relu/3x3_0_split
I0416 20:49:32.107092 32198 net.cpp:157] Top shape: 1 512 38 63 (1225728)
I0416 20:49:32.107095 32198 net.cpp:157] Top shape: 1 512 38 63 (1225728)
I0416 20:49:32.107096 32198 net.cpp:165] Memory required for data: 1419737940
I0416 20:49:32.107098 32198 layer_factory.hpp:77] Creating layer rpn_cls_score
I0416 20:49:32.107120 32198 net.cpp:100] Creating Layer rpn_cls_score
I0416 20:49:32.107122 32198 net.cpp:444] rpn_cls_score <- rpn/output_rpn_relu/3x3_0_split_0
I0416 20:49:32.107141 32198 net.cpp:418] rpn_cls_score -> rpn_cls_score
I0416 20:49:32.114006 32198 net.cpp:150] Setting up rpn_cls_score
I0416 20:49:32.114015 32198 net.cpp:157] Top shape: 1 18 38 63 (43092)
I0416 20:49:32.114017 32198 net.cpp:165] Memory required for data: 1419910308
I0416 20:49:32.114022 32198 layer_factory.hpp:77] Creating layer rpn_cls_score_rpn_cls_score_0_split
I0416 20:49:32.114027 32198 net.cpp:100] Creating Layer rpn_cls_score_rpn_cls_score_0_split
I0416 20:49:32.114030 32198 net.cpp:444] rpn_cls_score_rpn_cls_score_0_split <- rpn_cls_score
I0416 20:49:32.114033 32198 net.cpp:418] rpn_cls_score_rpn_cls_score_0_split -> rpn_cls_score_rpn_cls_score_0_split_0
I0416 20:49:32.114039 32198 net.cpp:418] rpn_cls_score_rpn_cls_score_0_split -> rpn_cls_score_rpn_cls_score_0_split_1
I0416 20:49:32.114080 32198 net.cpp:150] Setting up rpn_cls_score_rpn_cls_score_0_split
I0416 20:49:32.114087 32198 net.cpp:157] Top shape: 1 18 38 63 (43092)
I0416 20:49:32.114090 32198 net.cpp:157] Top shape: 1 18 38 63 (43092)
I0416 20:49:32.114091 32198 net.cpp:165] Memory required for data: 1420255044
I0416 20:49:32.114094 32198 layer_factory.hpp:77] Creating layer rpn_bbox_pred
I0416 20:49:32.114100 32198 net.cpp:100] Creating Layer rpn_bbox_pred
I0416 20:49:32.114102 32198 net.cpp:444] rpn_bbox_pred <- rpn/output_rpn_relu/3x3_0_split_1
I0416 20:49:32.114106 32198 net.cpp:418] rpn_bbox_pred -> rpn_bbox_pred
I0416 20:49:32.120653 32198 net.cpp:150] Setting up rpn_bbox_pred
I0416 20:49:32.120729 32198 net.cpp:157] Top shape: 1 36 38 63 (86184)
I0416 20:49:32.120740 32198 net.cpp:165] Memory required for data: 1420599780
I0416 20:49:32.120756 32198 layer_factory.hpp:77] Creating layer rpn_bbox_pred_rpn_bbox_pred_0_split
I0416 20:49:32.120774 32198 net.cpp:100] Creating Layer rpn_bbox_pred_rpn_bbox_pred_0_split
I0416 20:49:32.120784 32198 net.cpp:444] rpn_bbox_pred_rpn_bbox_pred_0_split <- rpn_bbox_pred
I0416 20:49:32.120805 32198 net.cpp:418] rpn_bbox_pred_rpn_bbox_pred_0_split -> rpn_bbox_pred_rpn_bbox_pred_0_split_0
I0416 20:49:32.120820 32198 net.cpp:418] rpn_bbox_pred_rpn_bbox_pred_0_split -> rpn_bbox_pred_rpn_bbox_pred_0_split_1
I0416 20:49:32.120887 32198 net.cpp:150] Setting up rpn_bbox_pred_rpn_bbox_pred_0_split
I0416 20:49:32.120898 32198 net.cpp:157] Top shape: 1 36 38 63 (86184)
I0416 20:49:32.120908 32198 net.cpp:157] Top shape: 1 36 38 63 (86184)
I0416 20:49:32.120914 32198 net.cpp:165] Memory required for data: 1421289252
I0416 20:49:32.120921 32198 layer_factory.hpp:77] Creating layer rpn_cls_score_reshape
I0416 20:49:32.120940 32198 net.cpp:100] Creating Layer rpn_cls_score_reshape
I0416 20:49:32.120949 32198 net.cpp:444] rpn_cls_score_reshape <- rpn_cls_score_rpn_cls_score_0_split_0
I0416 20:49:32.120959 32198 net.cpp:418] rpn_cls_score_reshape -> rpn_cls_score_reshape
I0416 20:49:32.120996 32198 net.cpp:150] Setting up rpn_cls_score_reshape
I0416 20:49:32.121007 32198 net.cpp:157] Top shape: 1 2 342 63 (43092)
I0416 20:49:32.121016 32198 net.cpp:165] Memory required for data: 1421461620
I0416 20:49:32.121022 32198 layer_factory.hpp:77] Creating layer rpn_cls_score_reshape_rpn_cls_score_reshape_0_split
I0416 20:49:32.121032 32198 net.cpp:100] Creating Layer rpn_cls_score_reshape_rpn_cls_score_reshape_0_split
I0416 20:49:32.121040 32198 net.cpp:444] rpn_cls_score_reshape_rpn_cls_score_reshape_0_split <- rpn_cls_score_reshape
I0416 20:49:32.121049 32198 net.cpp:418] rpn_cls_score_reshape_rpn_cls_score_reshape_0_split -> rpn_cls_score_reshape_rpn_cls_score_reshape_0_split_0
I0416 20:49:32.121059 32198 net.cpp:418] rpn_cls_score_reshape_rpn_cls_score_reshape_0_split -> rpn_cls_score_reshape_rpn_cls_score_reshape_0_split_1
I0416 20:49:32.121093 32198 net.cpp:150] Setting up rpn_cls_score_reshape_rpn_cls_score_reshape_0_split
I0416 20:49:32.121104 32198 net.cpp:157] Top shape: 1 2 342 63 (43092)
I0416 20:49:32.121112 32198 net.cpp:157] Top shape: 1 2 342 63 (43092)
I0416 20:49:32.121119 32198 net.cpp:165] Memory required for data: 1421806356
I0416 20:49:32.121126 32198 layer_factory.hpp:77] Creating layer rpn-data
I0416 20:49:32.121561 32198 net.cpp:100] Creating Layer rpn-data
I0416 20:49:32.121592 32198 net.cpp:444] rpn-data <- rpn_cls_score_rpn_cls_score_0_split_1
I0416 20:49:32.121605 32198 net.cpp:444] rpn-data <- gt_boxes_input-data_2_split_0
I0416 20:49:32.121615 32198 net.cpp:444] rpn-data <- im_info_input-data_1_split_0
I0416 20:49:32.121624 32198 net.cpp:444] rpn-data <- data_input-data_0_split_1
I0416 20:49:32.121634 32198 net.cpp:418] rpn-data -> rpn_labels
I0416 20:49:32.121646 32198 net.cpp:418] rpn-data -> rpn_bbox_targets
I0416 20:49:32.121659 32198 net.cpp:418] rpn-data -> rpn_bbox_inside_weights
I0416 20:49:32.121670 32198 net.cpp:418] rpn-data -> rpn_bbox_outside_weights
I0416 20:49:32.122342 32198 net.cpp:150] Setting up rpn-data
I0416 20:49:32.122381 32198 net.cpp:157] Top shape: 1 1 342 63 (21546)
I0416 20:49:32.122391 32198 net.cpp:157] Top shape: 1 36 38 63 (86184)
I0416 20:49:32.122400 32198 net.cpp:157] Top shape: 1 36 38 63 (86184)
I0416 20:49:32.122407 32198 net.cpp:157] Top shape: 1 36 38 63 (86184)
I0416 20:49:32.122414 32198 net.cpp:165] Memory required for data: 1422926748
I0416 20:49:32.122424 32198 layer_factory.hpp:77] Creating layer rpn_loss_cls
I0416 20:49:32.122437 32198 net.cpp:100] Creating Layer rpn_loss_cls
I0416 20:49:32.122447 32198 net.cpp:444] rpn_loss_cls <- rpn_cls_score_reshape_rpn_cls_score_reshape_0_split_0
I0416 20:49:32.122457 32198 net.cpp:444] rpn_loss_cls <- rpn_labels
…
I0416 20:49:32.123306 32198 net.cpp:157] Top shape: (1)
I0416 20:49:32.123312 32198 net.cpp:160]     with loss weight 1
I0416 20:49:32.123322 32198 net.cpp:165] Memory required for data: 1422926756
I0416 20:49:32.123329 32198 layer_factory.hpp:77] Creating layer rpn_cls_prob
I0416 20:49:32.123338 32198 net.cpp:100] Creating Layer rpn_cls_prob
I0416 20:49:32.123347 32198 net.cpp:444] rpn_cls_prob <- rpn_cls_score_reshape_rpn_cls_score_reshape_0_split_1
I0416 20:49:32.123356 32198 net.cpp:418] rpn_cls_prob -> rpn_cls_prob
I0416 20:49:32.125072 32198 net.cpp:150] Setting up rpn_cls_prob
I0416 20:49:32.125143 32198 net.cpp:157] Top shape: 1 2 342 63 (43092)
I0416 20:49:32.125152 32198 net.cpp:165] Memory required for data: 1423099124
I0416 20:49:32.125164 32198 layer_factory.hpp:77] Creating layer rpn_cls_prob_reshape
I0416 20:49:32.125181 32198 net.cpp:100] Creating Layer rpn_cls_prob_reshape
I0416 20:49:32.125191 32198 net.cpp:444] rpn_cls_prob_reshape <- rpn_cls_prob
I0416 20:49:32.125205 32198 net.cpp:418] rpn_cls_prob_reshape -> rpn_cls_prob_reshape
I0416 20:49:32.125258 32198 net.cpp:150] Setting up rpn_cls_prob_reshape
I0416 20:49:32.125270 32198 net.cpp:157] Top shape: 1 18 38 63 (43092)
I0416 20:49:32.125278 32198 net.cpp:165] Memory required for data: 1423271492
I0416 20:49:32.125285 32198 layer_factory.hpp:77] Creating layer proposal
I0416 20:49:32.126085 32198 net.cpp:100] Creating Layer proposal
I0416 20:49:32.126126 32198 net.cpp:444] proposal <- rpn_cls_prob_reshape
I0416 20:49:32.126138 32198 net.cpp:444] proposal <- rpn_bbox_pred_rpn_bbox_pred_0_split_1
I0416 20:49:32.126148 32198 net.cpp:444] proposal <- im_info_input-data_1_split_1
I0416 20:49:32.126168 32198 net.cpp:418] proposal -> rpn_rois
I0416 20:49:32.126734 32198 net.cpp:150] Setting up proposal
I0416 20:49:32.126790 32198 net.cpp:157] Top shape: 1 5 (5)
I0416 20:49:32.126801 32198 net.cpp:165] Memory required for data: 1423271512
I0416 20:49:32.126811 32198 layer_factory.hpp:77] Creating layer roi-data
I0416 20:49:32.127009 32198 net.cpp:100] Creating Layer roi-data
I0416 20:49:32.127029 32198 net.cpp:444] roi-data <- rpn_rois
I0416 20:49:32.127041 32198 net.cpp:444] roi-data <- gt_boxes_input-data_2_split_1
I0416 20:49:32.127051 32198 net.cpp:418] roi-data -> rois
I0416 20:49:32.127064 32198 net.cpp:418] roi-data -> labels
I0416 20:49:32.127075 32198 net.cpp:418] roi-data -> bbox_targets
I0416 20:49:32.127086 32198 net.cpp:418] roi-data -> bbox_inside_weights
I0416 20:49:32.127096 32198 net.cpp:418] roi-data -> bbox_outside_weights
I0416 20:49:32.127504 32198 net.cpp:150] Setting up roi-data
I0416 20:49:32.127531 32198 net.cpp:157] Top shape: 1 5 (5)
I0416 20:49:32.127540 32198 net.cpp:157] Top shape: 1 1 (1)
I0416 20:49:32.127548 32198 net.cpp:157] Top shape: 1 24 (24)
I0416 20:49:32.127557 32198 net.cpp:157] Top shape: 1 24 (24)
I0416 20:49:32.127564 32198 net.cpp:157] Top shape: 1 24 (24)
I0416 20:49:32.127571 32198 net.cpp:165] Memory required for data: 1423271824
I0416 20:49:32.127579 32198 layer_factory.hpp:77] Creating layer roi_pool5
I0416 20:49:32.127594 32198 net.cpp:100] Creating Layer roi_pool5
I0416 20:49:32.127604 32198 net.cpp:444] roi_pool5 <- conv5_3_relu5_3_0_split_1
I0416 20:49:32.127614 32198 net.cpp:444] roi_pool5 <- rois
I0416 20:49:32.127624 32198 net.cpp:418] roi_pool5 -> pool5
I0416 20:49:32.127635 32198 roi_pooling_layer.cpp:25] Spatial scale: 0.0625
I0416 20:49:32.127682 32198 net.cpp:150] Setting up roi_pool5
I0416 20:49:32.127692 32198 net.cpp:157] Top shape: 1 512 7 7 (25088)
I0416 20:49:32.127706 32198 net.cpp:165] Memory required for data: 1423372176
I0416 20:49:32.127713 32198 layer_factory.hpp:77] Creating layer fc6
I0416 20:49:32.127723 32198 net.cpp:100] Creating Layer fc6
I0416 20:49:32.127732 32198 net.cpp:444] fc6 <- pool5
I0416 20:49:32.127740 32198 net.cpp:418] fc6 -> fc6
I0416 20:49:32.265264 32198 net.cpp:150] Setting up fc6
I0416 20:49:32.265288 32198 net.cpp:157] Top shape: 1 4096 (4096)
I0416 20:49:32.265291 32198 net.cpp:165] Memory required for data: 1423388560
I0416 20:49:32.265302 32198 layer_factory.hpp:77] Creating layer relu6
I0416 20:49:32.265311 32198 net.cpp:100] Creating Layer relu6
I0416 20:49:32.265314 32198 net.cpp:444] relu6 <- fc6
I0416 20:49:32.265318 32198 net.cpp:405] relu6 -> fc6 (in-place)
I0416 20:49:32.265506 32198 net.cpp:150] Setting up relu6
I0416 20:49:32.265511 32198 net.cpp:157] Top shape: 1 4096 (4096)
I0416 20:49:32.265527 32198 net.cpp:165] Memory required for data: 1423404944
I0416 20:49:32.265530 32198 layer_factory.hpp:77] Creating layer drop6
I0416 20:49:32.265535 32198 net.cpp:100] Creating Layer drop6
I0416 20:49:32.265537 32198 net.cpp:444] drop6 <- fc6
I0416 20:49:32.265540 32198 net.cpp:405] drop6 -> fc6 (in-place)
I0416 20:49:32.265560 32198 net.cpp:150] Setting up drop6
I0416 20:49:32.265565 32198 net.cpp:157] Top shape: 1 4096 (4096)
I0416 20:49:32.265568 32198 net.cpp:165] Memory required for data: 1423421328
I0416 20:49:32.265569 32198 layer_factory.hpp:77] Creating layer fc7
I0416 20:49:32.265586 32198 net.cpp:100] Creating Layer fc7
I0416 20:49:32.265588 32198 net.cpp:444] fc7 <- fc6
I0416 20:49:32.265605 32198 net.cpp:418] fc7 -> fc7
I0416 20:49:32.286638 32198 net.cpp:150] Setting up fc7
I0416 20:49:32.286660 32198 net.cpp:157] Top shape: 1 4096 (4096)
I0416 20:49:32.286664 32198 net.cpp:165] Memory required for data: 1423437712
I0416 20:49:32.286670 32198 layer_factory.hpp:77] Creating layer relu7
I0416 20:49:32.286679 32198 net.cpp:100] Creating Layer relu7
I0416 20:49:32.286682 32198 net.cpp:444] relu7 <- fc7
I0416 20:49:32.286686 32198 net.cpp:405] relu7 -> fc7 (in-place)
I0416 20:49:32.286880 32198 net.cpp:150] Setting up relu7
I0416 20:49:32.286902 32198 net.cpp:157] Top shape: 1 4096 (4096)
I0416 20:49:32.286906 32198 net.cpp:165] Memory required for data: 1423454096
I0416 20:49:32.286907 32198 layer_factory.hpp:77] Creating layer drop7
I0416 20:49:32.286912 32198 net.cpp:100] Creating Layer drop7
I0416 20:49:32.286916 32198 net.cpp:444] drop7 <- fc7
I0416 20:49:32.286918 32198 net.cpp:405] drop7 -> fc7 (in-place)
I0416 20:49:32.286938 32198 net.cpp:150] Setting up drop7
I0416 20:49:32.286942 32198 net.cpp:157] Top shape: 1 4096 (4096)
I0416 20:49:32.286944 32198 net.cpp:165] Memory required for data: 1423470480
I0416 20:49:32.286947 32198 layer_factory.hpp:77] Creating layer fc7_drop7_0_split
I0416 20:49:32.286952 32198 net.cpp:100] Creating Layer fc7_drop7_0_split
I0416 20:49:32.286965 32198 net.cpp:444] fc7_drop7_0_split <- fc7
I0416 20:49:32.286968 32198 net.cpp:418] fc7_drop7_0_split -> fc7_drop7_0_split_0
I0416 20:49:32.286972 32198 net.cpp:418] fc7_drop7_0_split -> fc7_drop7_0_split_1
I0416 20:49:32.287010 32198 net.cpp:150] Setting up fc7_drop7_0_split
I0416 20:49:32.287014 32198 net.cpp:157] Top shape: 1 4096 (4096)
I0416 20:49:32.287016 32198 net.cpp:157] Top shape: 1 4096 (4096)
I0416 20:49:32.287019 32198 net.cpp:165] Memory required for data: 1423503248
I0416 20:49:32.287020 32198 layer_factory.hpp:77] Creating layer my_cls_score
I0416 20:49:32.287026 32198 net.cpp:100] Creating Layer my_cls_score
I0416 20:49:32.287029 32198 net.cpp:444] my_cls_score <- fc7_drop7_0_split_0
I0416 20:49:32.287032 32198 net.cpp:418] my_cls_score -> my_cls_score
I0416 20:49:32.287662 32198 net.cpp:150] Setting up my_cls_score
I0416 20:49:32.287668 32198 net.cpp:157] Top shape: 1 6 (6)
I0416 20:49:32.287670 32198 net.cpp:165] Memory required for data: 1423503272
I0416 20:49:32.287673 32198 layer_factory.hpp:77] Creating layer my_bbox_pred
I0416 20:49:32.287678 32198 net.cpp:100] Creating Layer my_bbox_pred
I0416 20:49:32.287680 32198 net.cpp:444] my_bbox_pred <- fc7_drop7_0_split_1
I0416 20:49:32.287683 32198 net.cpp:418] my_bbox_pred -> my_bbox_pred
I0416 20:49:32.289827 32198 net.cpp:150] Setting up my_bbox_pred
I0416 20:49:32.289832 32198 net.cpp:157] Top shape: 1 24 (24)
I0416 20:49:32.289834 32198 net.cpp:165] Memory required for data: 1423503368
I0416 20:49:32.289839 32198 layer_factory.hpp:77] Creating layer loss_cls
I0416 20:49:32.289842 32198 net.cpp:100] Creating Layer loss_cls
I0416 20:49:32.289844 32198 net.cpp:444] loss_cls <- my_cls_score
I0416 20:49:32.289847 32198 net.cpp:444] loss_cls <- labels
I0416 20:49:32.289850 32198 net.cpp:418] loss_cls -> loss_cls
…
