…
snapshot_prefix: "vgg16_faster_rcnn"
average_loss: 100
iter_size: 2
I0416 14:30:32.965701 30715 solver.cpp:81] Creating training net from train_net file: models/pascal_voc/VGG16/faster_rcnn_end2end/train.prototxt
I0416 14:30:32.966536 30715 net.cpp:58] Initializing net from parameters: 
name: "VGG_ILSVRC_16_layers"
state {
  phase: TRAIN
}
layer {
  name: "input-data"
  type: "Python"
  top: "data"
  top: "im_info"
  top: "gt_boxes"
  python_param {
    module: "roi_data_layer.layer"
    layer: "RoIDataLayer"
    param_str: "\'num_classes\': 6"
  }
}
layer {
  name: "conv1_1"
  type: "Convolution"
  bottom: "data"
  top: "conv1_1"
  param {
    lr_mult: 0
    decay_mult: 0
  }
  param {
    lr_mult: 0
    decay_mult: 0
  }
  convolution_param {
    num_output: 64
    pad: 1
    kernel_size: 3
  }
}
layer {
  name: "relu1_1"
  type: "ReLU"
  bottom: "conv1_1"
  top: "conv1_1"
}
layer {
  name: "conv1_2"
  type: "Convolution"
  bottom: "conv1_1"
  top: "conv1_2"
  param {
    lr_mult: 0
    decay_mult: 0
  }
  param {
    lr_mult: 0
    decay_mult: 0
  }
  convolution_param {
    num_output: 64
    pad: 1
    kernel_size: 3
  }
}
layer {
  name: "relu1_2"
  type: "ReLU"
  bottom: "conv1_2"
  top: "conv1_2"
}
layer {
  name: "pool1"
  type: "Pooling"
  bottom: "conv1_2"
  top: "pool1"
  pooling_param {
    pool: MAX
    kernel_size: 2
    stride: 2
  }
}
layer {
  name: "conv2_1"
  type: "Convolution"
  bottom: "pool1"
  top: "conv2_1"
  param {
    lr_mult: 0
    decay_mult: 0
  }
  param {
    lr_mult: 0
    decay_mult: 0
  }
  convolution_param {
    num_output: 128
    pad: 1
    kernel_size: 3
  }
}
layer {
  name: "relu2_1"
  type: "ReLU"
  bottom: "conv2_1"
  top: "conv2_1"
}
layer {
  name: "conv2_2"
  type: "Convolution"
  bottom: "conv2_1"
  top: "conv2_2"
  param {
    lr_mult: 0
    decay_mult: 0
  }
  param {
    lr_mult: 0
    decay_mult: 0
  }
  convolution_param {
    num_output: 128
    pad: 1
    kernel_size: 3
  }
}
layer {
  name: "relu2_2"
  type: "ReLU"
  bottom: "conv2_2"
  top: "conv2_2"
}
layer {
  name: "pool2"
  type: "Pooling"
  bottom: "conv2_2"
  top: "pool2"
  pooling_param {
    pool: MAX
    kernel_size: 2
    stride: 2
  }
}
layer {
  name: "conv3_1"
  type: "Convolution"
  bottom: "pool2"
  top: "conv3_1"
  param {
    lr_mult: 1
  }
  param {
    lr_mult: 2
  }
  convolution_param {
    num_output: 256
    pad: 1
    kernel_size: 3
  }
}
layer {
  name: "relu3_1"
  type: "ReLU"
  bottom: "conv3_1"
  top: "conv3_1"
}
layer {
  name: "conv3_2"
  type: "Convolution"
  bottom: "conv3_1"
  top: "conv3_2"
  param {
    lr_mult: 1
  }
  param {
    lr_mult: 2
  }
  convolution_param {
    num_output: 256
    pad: 1
    kernel_size: 3
  }
}
layer {
  name: "relu3_2"
  type: "ReLU"
  bottom: "conv3_2"
  top: "conv3_2"
}
layer {
  name: "conv3_3"
  type: "Convolution"
  bottom: "conv3_2"
  top: "conv3_3"
  param {
    lr_mult: 1
  }
  param {
    lr_mult: 2
  }
  convolution_param {
    num_output: 256
    pad: 1
    kernel_size: 3
  }
}
layer {
  name: "relu3_3"
  type: "ReLU"
  bottom: "conv3_3"
  top: "conv3_3"
}
layer {
  name: "pool3"
  type: "Pooling"
  bottom: "conv3_3"
  top: "pool3"
  pooling_param {
    pool: MAX
    kernel_size: 2
    stride: 2
  }
}
layer {
  name: "conv4_1"
  type: "Convolution"
  bottom: "pool3"
  top: "conv4_1"
  param {
    lr_mult: 1
  }
  param {
    lr_mult: 2
  }
  convolution_param {
    num_output: 512
    pad: 1
    kernel_size: 3
  }
}
layer {
  name: "relu4_1"
  type: "ReLU"
  bottom: "conv4_1"
  top: "conv4_1"
}
layer {
  name: "conv4_2"
  type: "Convolution"
  bottom: "conv4_1"
  top: "conv4_2"
  param {
    lr_mult: 1
  }
  param {
    lr_mult: 2
  }
  convolution_param {
    num_output: 512
    pad: 1
    kernel_size: 3
  }
}
layer {
  name: "relu4_2"
  type: "ReLU"
  bottom: "conv4_2"
  top: "conv4_2"
}
layer {
  name: "conv4_3"
  type: "Convolution"
  bottom: "conv4_2"
  top: "conv4_3"
  param {
    lr_mult: 1
  }
  param {
    lr_mult: 2
  }
  convolution_param {
    num_output: 512
    pad: 1
    kernel_size: 3
  }
}
layer {
  name: "relu4_3"
  type: "ReLU"
  bottom: "conv4_3"
  top: "conv4_3"
}
layer {
  name: "pool4"
  type: "Pooling"
  bottom: "conv4_3"
  top: "pool4"
  pooling_param {
    pool: MAX
    kernel_size: 2
    stride: 2
  }
}
layer {
  name: "conv5_1"
  type: "Convolution"
  bottom: "pool4"
  top: "conv5_1"
  param {
    lr_mult: 1
  }
  param {
    lr_mult: 2
  }
  convolution_param {
    num_output: 512
    pad: 1
    kernel_size: 3
  }
}
layer {
  name: "relu5_1"
  type: "ReLU"
  bottom: "conv5_1"
  top: "conv5_1"
}
layer {
  name: "conv5_2"
  type: "Convolution"
  bottom: "conv5_1"
  top: "conv5_2"
  param {
    lr_mult: 1
  }
  param {
    lr_mult: 2
  }
  convolution_param {
    num_output: 512
    pad: 1
    kernel_size: 3
  }
}
layer {
  name: "relu5_2"
  type: "ReLU"
  bottom: "conv5_2"
  top: "conv5_2"
}
layer {
  name: "conv5_3"
  type: "Convolution"
  bottom: "conv5_2"
  top: "conv5_3"
  param {
    lr_mult: 1
  }
  param {
    lr_mult: 2
  }
  convolution_param {
    num_output: 512
    pad: 1
    kernel_size: 3
  }
}
layer {
  name: "relu5_3"
  type: "ReLU"
  bottom: "conv5_3"
  top: "conv5_3"
}
layer {
  name: "rpn_conv/3x3"
  type: "Convolution"
  bottom: "conv5_3"
  top: "rpn/output"
  param {
    lr_mult: 1
  }
  param {
    lr_mult: 2
  }
  convolution_param {
    num_output: 512
    pad: 1
    kernel_size: 3
    stride: 1
    weight_filler {
      type: "gaussian"
      std: 0.01
    }
    bias_filler {
      type: "constant"
      value: 0
    }
  }
}
layer {
  name: "rpn_relu/3x3"
  type: "ReLU"
  bottom: "rpn/output"
  top: "rpn/output"
}
layer {
  name: "rpn_cls_score"
  type: "Convolution"
  bottom: "rpn/output"
  top: "rpn_cls_score"
  param {
    lr_mult: 1
  }
  param {
    lr_mult: 2
  }
  convolution_param {
    num_output: 18
    pad: 0
    kernel_size: 1
    stride: 1
    weight_filler {
      type: "gaussian"
      std: 0.01
    }
    bias_filler {
      type: "constant"
      value: 0
    }
  }
}
layer {
  name: "rpn_bbox_pred"
  type: "Convolution"
  bottom: "rpn/output"
  top: "rpn_bbox_pred"
  param {
    lr_mult: 1
  }
  param {
    lr_mult: 2
  }
  convolution_param {
    num_output: 36
    pad: 0
    kernel_size: 1
    stride: 1
    weight_filler {
      type: "gaussian"
      std: 0.01
    }
    bias_filler {
      type: "constant"
      value: 0
    }
  }
}
layer {
  name: "rpn_cls_score_reshape"
  type: "Reshape"
  bottom: "rpn_cls_score"
  top: "rpn_cls_score_reshape"
  reshape_param {
    shape {
      dim: 0
      dim: 2
      dim: -1
      dim: 0
    }
  }
}
layer {
  name: "rpn-data"
  type: "Python"
  bottom: "rpn_cls_score"
  bottom: "gt_boxes"
  bottom: "im_info"
  bottom: "data"
  top: "rpn_labels"
  top: "rpn_bbox_targets"
  top: "rpn_bbox_inside_weights"
  top: "rpn_bbox_outside_weights"
  python_param {
    module: "rpn.anchor_target_layer"
    layer: "AnchorTargetLayer"
    param_str: "\'feat_stride\': 16"
  }
}
layer {
  name: "rpn_loss_cls"
  type: "SoftmaxWithLoss"
  bottom: "rpn_cls_score_reshape"
  bottom: "rpn_labels"
  top: "rpn_cls_loss"
  loss_weight: 1
  propagate_down: true
  propagate_down: false
  loss_param {
    ignore_label: -1
    normalize: true
  }
}
layer {
  name: "rpn_loss_bbox"
  type: "SmoothL1Loss"
  bottom: "rpn_bbox_pred"
  bottom: "rpn_bbox_targets"
  bottom: "rpn_bbox_inside_weights"
  bottom: "rpn_bbox_outside_weights"
  top: "rpn_loss_bbox"
  loss_weight: 1
  smooth_l1_loss_param {
    sigma: 3
  }
}
layer {
  name: "rpn_cls_prob"
  type: "Softmax"
  bottom: "rpn_cls_score_reshape"
  top: "rpn_cls_prob"
}
layer {
  name: "rpn_cls_prob_reshape"
  type: "Reshape"
  bottom: "rpn_cls_prob"
  top: "rpn_cls_prob_reshape"
  reshape_param {
    shape {
      dim: 0
      dim: 18
      dim: -1
      dim: 0
    }
  }
}
layer {
  name: "proposal"
  type: "Python"
  bottom: "rpn_cls_prob_reshape"
  bottom: "rpn_bbox_pred"
  bottom: "im_info"
  top: "rpn_rois"
  python_param {
    module: "rpn.proposal_layer"
    layer: "ProposalLayer"
    param_str: "\'feat_stride\': 16"
  }
}
layer {
  name: "roi-data"
  type: "Python"
  bottom: "rpn_rois"
  bottom: "gt_boxes"
  top: "rois"
  top: "labels"
  top: "bbox_targets"
  top: "bbox_inside_weights"
  top: "bbox_outside_weights"
  python_param {
    module: "rpn.proposal_target_layer"
    layer: "ProposalTargetLayer"
    param_str: "\'num_classes\': 6"
  }
}
layer {
  name: "roi_pool5"
  type: "ROIPooling"
  bottom: "conv5_3"
  bottom: "rois"
  top: "pool5"
  roi_pooling_param {
    pooled_h: 7
    pooled_w: 7
    spatial_scale: 0.0625
  }
}
layer {
  name: "fc6"
  type: "InnerProduct"
  bottom: "pool5"
  top: "fc6"
  param {
    lr_mult: 1
  }
  param {
    lr_mult: 2
  }
  inner_product_param {
    num_output: 4096
  }
}
layer {
  name: "relu6"
  type: "ReLU"
  bottom: "fc6"
  top: "fc6"
}
layer {
  name: "drop6"
  type: "Dropout"
  bottom: "fc6"
  top: "fc6"
  dropout_param {
    dropout_ratio: 0.5
  }
}
layer {
  name: "fc7"
  type: "InnerProduct"
  bottom: "fc6"
  top: "fc7"
  param {
    lr_mult: 1
  }
  param {
    lr_mult: 2
  }
  inner_product_param {
    num_output: 4096
  }
}
layer {
  name: "relu7"
  type: "ReLU"
  bottom: "fc7"
  top: "fc7"
}
layer {
  name: "drop7"
  type: "Dropout"
  bottom: "fc7"
  top: "fc7"
  dropout_param {
    dropout_ratio: 0.5
  }
}
layer {
  name: "my_cls_score"
  type: "InnerProduct"
  bottom: "fc7"
  top: "my_cls_score"
  param {
    lr_mult: 1
  }
  param {
    lr_mult: 2
  }
  inner_product_param {
    num_output: 6
    weight_filler {
      type: "gaussian"
      std: 0.01
    }
    bias_filler {
      type: "constant"
      value: 0
    }
  }
}
layer {
  name: "my_bbox_pred"
  type: "InnerProduct"
  bottom: "fc7"
  top: "my_bbox_pred"
  param {
    lr_mult: 1
  }
  param {
    lr_mult: 2
  }
  inner_product_param {
    num_output: 24
    weight_filler {
      type: "gaussian"
      std: 0.001
    }
    bias_filler {
      type: "constant"
      value: 0
    }
  }
}
layer {
  name: "loss_cls"
  type: "SoftmaxWithLoss"
  bottom: "my_cls_score"
  bottom: "labels"
  top: "loss_cls"
  loss_weight: 1
  propagate_down: true
  propagate_down: false
}
layer {
  name: "loss_bbox"
  type: "SmoothL1Loss"
  bottom: "my_bbox_pred"
  bottom: "bbox_targets"
  bottom: "bbox_inside_weights"
  bottom: "bbox_outside_weights"
  top: "loss_bbox"
  loss_weight: 1
}
I0416 14:30:32.966702 30715 layer_factory.hpp:77] Creating layer input-data
I0416 14:30:32.984043 30715 net.cpp:100] Creating Layer input-data
I0416 14:30:32.984063 30715 net.cpp:418] input-data -> data
I0416 14:30:32.984076 30715 net.cpp:418] input-data -> im_info
I0416 14:30:32.984081 30715 net.cpp:418] input-data -> gt_boxes
I0416 14:30:32.999995 30715 net.cpp:150] Setting up input-data
I0416 14:30:33.000017 30715 net.cpp:157] Top shape: 1 3 600 1000 (1800000)
I0416 14:30:33.000021 30715 net.cpp:157] Top shape: 1 3 (3)
I0416 14:30:33.000023 30715 net.cpp:157] Top shape: 1 4 (4)
I0416 14:30:33.000025 30715 net.cpp:165] Memory required for data: 7200028
I0416 14:30:33.000030 30715 layer_factory.hpp:77] Creating layer data_input-data_0_split
I0416 14:30:33.000041 30715 net.cpp:100] Creating Layer data_input-data_0_split
I0416 14:30:33.000046 30715 net.cpp:444] data_input-data_0_split <- data
I0416 14:30:33.000049 30715 net.cpp:418] data_input-data_0_split -> data_input-data_0_split_0
I0416 14:30:33.000071 30715 net.cpp:418] data_input-data_0_split -> data_input-data_0_split_1
I0416 14:30:33.000097 30715 net.cpp:150] Setting up data_input-data_0_split
I0416 14:30:33.000100 30715 net.cpp:157] Top shape: 1 3 600 1000 (1800000)
I0416 14:30:33.000103 30715 net.cpp:157] Top shape: 1 3 600 1000 (1800000)
I0416 14:30:33.000105 30715 net.cpp:165] Memory required for data: 21600028
I0416 14:30:33.000108 30715 layer_factory.hpp:77] Creating layer im_info_input-data_1_split
I0416 14:30:33.000111 30715 net.cpp:100] Creating Layer im_info_input-data_1_split
I0416 14:30:33.000113 30715 net.cpp:444] im_info_input-data_1_split <- im_info
I0416 14:30:33.000116 30715 net.cpp:418] im_info_input-data_1_split -> im_info_input-data_1_split_0
I0416 14:30:33.000119 30715 net.cpp:418] im_info_input-data_1_split -> im_info_input-data_1_split_1
I0416 14:30:33.000136 30715 net.cpp:150] Setting up im_info_input-data_1_split
I0416 14:30:33.000140 30715 net.cpp:157] Top shape: 1 3 (3)
I0416 14:30:33.000143 30715 net.cpp:157] Top shape: 1 3 (3)
I0416 14:30:33.000144 30715 net.cpp:165] Memory required for data: 21600052
I0416 14:30:33.000146 30715 layer_factory.hpp:77] Creating layer gt_boxes_input-data_2_split
I0416 14:30:33.000149 30715 net.cpp:100] Creating Layer gt_boxes_input-data_2_split
I0416 14:30:33.000151 30715 net.cpp:444] gt_boxes_input-data_2_split <- gt_boxes
I0416 14:30:33.000154 30715 net.cpp:418] gt_boxes_input-data_2_split -> gt_boxes_input-data_2_split_0
I0416 14:30:33.000170 30715 net.cpp:418] gt_boxes_input-data_2_split -> gt_boxes_input-data_2_split_1
I0416 14:30:33.000203 30715 net.cpp:150] Setting up gt_boxes_input-data_2_split
I0416 14:30:33.000206 30715 net.cpp:157] Top shape: 1 4 (4)
I0416 14:30:33.000210 30715 net.cpp:157] Top shape: 1 4 (4)
I0416 14:30:33.000211 30715 net.cpp:165] Memory required for data: 21600084
I0416 14:30:33.000212 30715 layer_factory.hpp:77] Creating layer conv1_1
I0416 14:30:33.000222 30715 net.cpp:100] Creating Layer conv1_1
I0416 14:30:33.000224 30715 net.cpp:444] conv1_1 <- data_input-data_0_split_0
I0416 14:30:33.000228 30715 net.cpp:418] conv1_1 -> conv1_1
I0416 14:30:33.418504 30715 net.cpp:150] Setting up conv1_1
I0416 14:30:33.418524 30715 net.cpp:157] Top shape: 1 64 600 1000 (38400000)
I0416 14:30:33.418527 30715 net.cpp:165] Memory required for data: 175200084
I0416 14:30:33.418539 30715 layer_factory.hpp:77] Creating layer relu1_1
I0416 14:30:33.418546 30715 net.cpp:100] Creating Layer relu1_1
I0416 14:30:33.418550 30715 net.cpp:444] relu1_1 <- conv1_1
I0416 14:30:33.418553 30715 net.cpp:405] relu1_1 -> conv1_1 (in-place)
I0416 14:30:33.419697 30715 net.cpp:150] Setting up relu1_1
I0416 14:30:33.419703 30715 net.cpp:157] Top shape: 1 64 600 1000 (38400000)
I0416 14:30:33.419705 30715 net.cpp:165] Memory required for data: 328800084
I0416 14:30:33.419708 30715 layer_factory.hpp:77] Creating layer conv1_2
I0416 14:30:33.419714 30715 net.cpp:100] Creating Layer conv1_2
I0416 14:30:33.419716 30715 net.cpp:444] conv1_2 <- conv1_1
I0416 14:30:33.419720 30715 net.cpp:418] conv1_2 -> conv1_2
I0416 14:30:33.427203 30715 net.cpp:150] Setting up conv1_2
I0416 14:30:33.427219 30715 net.cpp:157] Top shape: 1 64 600 1000 (38400000)
I0416 14:30:33.427222 30715 net.cpp:165] Memory required for data: 482400084
I0416 14:30:33.427229 30715 layer_factory.hpp:77] Creating layer relu1_2
I0416 14:30:33.427235 30715 net.cpp:100] Creating Layer relu1_2
I0416 14:30:33.427239 30715 net.cpp:444] relu1_2 <- conv1_2
I0416 14:30:33.427243 30715 net.cpp:405] relu1_2 -> conv1_2 (in-place)
I0416 14:30:33.428628 30715 net.cpp:150] Setting up relu1_2
I0416 14:30:33.428634 30715 net.cpp:157] Top shape: 1 64 600 1000 (38400000)
I0416 14:30:33.428652 30715 net.cpp:165] Memory required for data: 636000084
I0416 14:30:33.428653 30715 layer_factory.hpp:77] Creating layer pool1
I0416 14:30:33.428658 30715 net.cpp:100] Creating Layer pool1
I0416 14:30:33.428660 30715 net.cpp:444] pool1 <- conv1_2
I0416 14:30:33.428664 30715 net.cpp:418] pool1 -> pool1
I0416 14:30:33.428691 30715 net.cpp:150] Setting up pool1
I0416 14:30:33.428696 30715 net.cpp:157] Top shape: 1 64 300 500 (9600000)
I0416 14:30:33.428699 30715 net.cpp:165] Memory required for data: 674400084
I0416 14:30:33.428700 30715 layer_factory.hpp:77] Creating layer conv2_1
I0416 14:30:33.428705 30715 net.cpp:100] Creating Layer conv2_1
I0416 14:30:33.428709 30715 net.cpp:444] conv2_1 <- pool1
I0416 14:30:33.428711 30715 net.cpp:418] conv2_1 -> conv2_1
I0416 14:30:33.435643 30715 net.cpp:150] Setting up conv2_1
I0416 14:30:33.435657 30715 net.cpp:157] Top shape: 1 128 300 500 (19200000)
I0416 14:30:33.435660 30715 net.cpp:165] Memory required for data: 751200084
I0416 14:30:33.435667 30715 layer_factory.hpp:77] Creating layer relu2_1
I0416 14:30:33.435672 30715 net.cpp:100] Creating Layer relu2_1
I0416 14:30:33.435675 30715 net.cpp:444] relu2_1 <- conv2_1
I0416 14:30:33.435678 30715 net.cpp:405] relu2_1 -> conv2_1 (in-place)
I0416 14:30:33.437577 30715 net.cpp:150] Setting up relu2_1
I0416 14:30:33.437585 30715 net.cpp:157] Top shape: 1 128 300 500 (19200000)
I0416 14:30:33.437587 30715 net.cpp:165] Memory required for data: 828000084
I0416 14:30:33.437589 30715 layer_factory.hpp:77] Creating layer conv2_2
I0416 14:30:33.437595 30715 net.cpp:100] Creating Layer conv2_2
I0416 14:30:33.437597 30715 net.cpp:444] conv2_2 <- conv2_1
I0416 14:30:33.437602 30715 net.cpp:418] conv2_2 -> conv2_2
I0416 14:30:33.444620 30715 net.cpp:150] Setting up conv2_2
I0416 14:30:33.444630 30715 net.cpp:157] Top shape: 1 128 300 500 (19200000)
I0416 14:30:33.444633 30715 net.cpp:165] Memory required for data: 904800084
I0416 14:30:33.444638 30715 layer_factory.hpp:77] Creating layer relu2_2
I0416 14:30:33.444643 30715 net.cpp:100] Creating Layer relu2_2
I0416 14:30:33.444644 30715 net.cpp:444] relu2_2 <- conv2_2
I0416 14:30:33.444648 30715 net.cpp:405] relu2_2 -> conv2_2 (in-place)
I0416 14:30:33.446527 30715 net.cpp:150] Setting up relu2_2
I0416 14:30:33.446537 30715 net.cpp:157] Top shape: 1 128 300 500 (19200000)
I0416 14:30:33.446538 30715 net.cpp:165] Memory required for data: 981600084
I0416 14:30:33.446540 30715 layer_factory.hpp:77] Creating layer pool2
I0416 14:30:33.446545 30715 net.cpp:100] Creating Layer pool2
I0416 14:30:33.446548 30715 net.cpp:444] pool2 <- conv2_2
I0416 14:30:33.446552 30715 net.cpp:418] pool2 -> pool2
I0416 14:30:33.446591 30715 net.cpp:150] Setting up pool2
I0416 14:30:33.446596 30715 net.cpp:157] Top shape: 1 128 150 250 (4800000)
I0416 14:30:33.446599 30715 net.cpp:165] Memory required for data: 1000800084
I0416 14:30:33.446600 30715 layer_factory.hpp:77] Creating layer conv3_1
I0416 14:30:33.446605 30715 net.cpp:100] Creating Layer conv3_1
I0416 14:30:33.446607 30715 net.cpp:444] conv3_1 <- pool2
I0416 14:30:33.446624 30715 net.cpp:418] conv3_1 -> conv3_1
I0416 14:30:33.453510 30715 net.cpp:150] Setting up conv3_1
I0416 14:30:33.453524 30715 net.cpp:157] Top shape: 1 256 150 250 (9600000)
I0416 14:30:33.453526 30715 net.cpp:165] Memory required for data: 1039200084
I0416 14:30:33.453534 30715 layer_factory.hpp:77] Creating layer relu3_1
I0416 14:30:33.453541 30715 net.cpp:100] Creating Layer relu3_1
I0416 14:30:33.453543 30715 net.cpp:444] relu3_1 <- conv3_1
I0416 14:30:33.453547 30715 net.cpp:405] relu3_1 -> conv3_1 (in-place)
I0416 14:30:33.455519 30715 net.cpp:150] Setting up relu3_1
I0416 14:30:33.455525 30715 net.cpp:157] Top shape: 1 256 150 250 (9600000)
I0416 14:30:33.455528 30715 net.cpp:165] Memory required for data: 1077600084
I0416 14:30:33.455529 30715 layer_factory.hpp:77] Creating layer conv3_2
I0416 14:30:33.455535 30715 net.cpp:100] Creating Layer conv3_2
I0416 14:30:33.455538 30715 net.cpp:444] conv3_2 <- conv3_1
I0416 14:30:33.455541 30715 net.cpp:418] conv3_2 -> conv3_2
I0416 14:30:33.462509 30715 net.cpp:150] Setting up conv3_2
I0416 14:30:33.462538 30715 net.cpp:157] Top shape: 1 256 150 250 (9600000)
I0416 14:30:33.462543 30715 net.cpp:165] Memory required for data: 1116000084
I0416 14:30:33.462548 30715 layer_factory.hpp:77] Creating layer relu3_2
I0416 14:30:33.462554 30715 net.cpp:100] Creating Layer relu3_2
I0416 14:30:33.462558 30715 net.cpp:444] relu3_2 <- conv3_2
I0416 14:30:33.462561 30715 net.cpp:405] relu3_2 -> conv3_2 (in-place)
I0416 14:30:33.464509 30715 net.cpp:150] Setting up relu3_2
I0416 14:30:33.464514 30715 net.cpp:157] Top shape: 1 256 150 250 (9600000)
I0416 14:30:33.464531 30715 net.cpp:165] Memory required for data: 1154400084
I0416 14:30:33.464534 30715 layer_factory.hpp:77] Creating layer conv3_3
I0416 14:30:33.464540 30715 net.cpp:100] Creating Layer conv3_3
I0416 14:30:33.464541 30715 net.cpp:444] conv3_3 <- conv3_2
I0416 14:30:33.464545 30715 net.cpp:418] conv3_3 -> conv3_3
I0416 14:30:33.471213 30715 net.cpp:150] Setting up conv3_3
I0416 14:30:33.471246 30715 net.cpp:157] Top shape: 1 256 150 250 (9600000)
I0416 14:30:33.471249 30715 net.cpp:165] Memory required for data: 1192800084
I0416 14:30:33.471257 30715 layer_factory.hpp:77] Creating layer relu3_3
I0416 14:30:33.471264 30715 net.cpp:100] Creating Layer relu3_3
I0416 14:30:33.471267 30715 net.cpp:444] relu3_3 <- conv3_3
I0416 14:30:33.471272 30715 net.cpp:405] relu3_3 -> conv3_3 (in-place)
I0416 14:30:33.471390 30715 net.cpp:150] Setting up relu3_3
I0416 14:30:33.471397 30715 net.cpp:157] Top shape: 1 256 150 250 (9600000)
I0416 14:30:33.471400 30715 net.cpp:165] Memory required for data: 1231200084
I0416 14:30:33.471401 30715 layer_factory.hpp:77] Creating layer pool3
I0416 14:30:33.471406 30715 net.cpp:100] Creating Layer pool3
I0416 14:30:33.471410 30715 net.cpp:444] pool3 <- conv3_3
I0416 14:30:33.471412 30715 net.cpp:418] pool3 -> pool3
I0416 14:30:33.471447 30715 net.cpp:150] Setting up pool3
I0416 14:30:33.471451 30715 net.cpp:157] Top shape: 1 256 75 125 (2400000)
I0416 14:30:33.471452 30715 net.cpp:165] Memory required for data: 1240800084
I0416 14:30:33.471454 30715 layer_factory.hpp:77] Creating layer conv4_1
I0416 14:30:33.471462 30715 net.cpp:100] Creating Layer conv4_1
I0416 14:30:33.471463 30715 net.cpp:444] conv4_1 <- pool3
I0416 14:30:33.471467 30715 net.cpp:418] conv4_1 -> conv4_1
I0416 14:30:33.478842 30715 net.cpp:150] Setting up conv4_1
I0416 14:30:33.478876 30715 net.cpp:157] Top shape: 1 512 75 125 (4800000)
I0416 14:30:33.478879 30715 net.cpp:165] Memory required for data: 1260000084
I0416 14:30:33.478888 30715 layer_factory.hpp:77] Creating layer relu4_1
I0416 14:30:33.478895 30715 net.cpp:100] Creating Layer relu4_1
I0416 14:30:33.478899 30715 net.cpp:444] relu4_1 <- conv4_1
I0416 14:30:33.478904 30715 net.cpp:405] relu4_1 -> conv4_1 (in-place)
I0416 14:30:33.480291 30715 net.cpp:150] Setting up relu4_1
I0416 14:30:33.480298 30715 net.cpp:157] Top shape: 1 512 75 125 (4800000)
I0416 14:30:33.480300 30715 net.cpp:165] Memory required for data: 1279200084
I0416 14:30:33.480314 30715 layer_factory.hpp:77] Creating layer conv4_2
I0416 14:30:33.480320 30715 net.cpp:100] Creating Layer conv4_2
I0416 14:30:33.480337 30715 net.cpp:444] conv4_2 <- conv4_1
I0416 14:30:33.480341 30715 net.cpp:418] conv4_2 -> conv4_2
I0416 14:30:33.487097 30715 net.cpp:150] Setting up conv4_2
I0416 14:30:33.487118 30715 net.cpp:157] Top shape: 1 512 75 125 (4800000)
I0416 14:30:33.487120 30715 net.cpp:165] Memory required for data: 1298400084
I0416 14:30:33.487128 30715 layer_factory.hpp:77] Creating layer relu4_2
I0416 14:30:33.487135 30715 net.cpp:100] Creating Layer relu4_2
I0416 14:30:33.487138 30715 net.cpp:444] relu4_2 <- conv4_2
I0416 14:30:33.487143 30715 net.cpp:405] relu4_2 -> conv4_2 (in-place)
I0416 14:30:33.489254 30715 net.cpp:150] Setting up relu4_2
I0416 14:30:33.489262 30715 net.cpp:157] Top shape: 1 512 75 125 (4800000)
I0416 14:30:33.489279 30715 net.cpp:165] Memory required for data: 1317600084
I0416 14:30:33.489281 30715 layer_factory.hpp:77] Creating layer conv4_3
I0416 14:30:33.489287 30715 net.cpp:100] Creating Layer conv4_3
I0416 14:30:33.489290 30715 net.cpp:444] conv4_3 <- conv4_2
I0416 14:30:33.489293 30715 net.cpp:418] conv4_3 -> conv4_3
I0416 14:30:33.498175 30715 net.cpp:150] Setting up conv4_3
I0416 14:30:33.498215 30715 net.cpp:157] Top shape: 1 512 75 125 (4800000)
I0416 14:30:33.498219 30715 net.cpp:165] Memory required for data: 1336800084
I0416 14:30:33.498225 30715 layer_factory.hpp:77] Creating layer relu4_3
I0416 14:30:33.498234 30715 net.cpp:100] Creating Layer relu4_3
I0416 14:30:33.498250 30715 net.cpp:444] relu4_3 <- conv4_3
I0416 14:30:33.498255 30715 net.cpp:405] relu4_3 -> conv4_3 (in-place)
I0416 14:30:33.500263 30715 net.cpp:150] Setting up relu4_3
I0416 14:30:33.500273 30715 net.cpp:157] Top shape: 1 512 75 125 (4800000)
I0416 14:30:33.500275 30715 net.cpp:165] Memory required for data: 1356000084
I0416 14:30:33.500277 30715 layer_factory.hpp:77] Creating layer pool4
I0416 14:30:33.500283 30715 net.cpp:100] Creating Layer pool4
I0416 14:30:33.500285 30715 net.cpp:444] pool4 <- conv4_3
I0416 14:30:33.500288 30715 net.cpp:418] pool4 -> pool4
I0416 14:30:33.500336 30715 net.cpp:150] Setting up pool4
I0416 14:30:33.500340 30715 net.cpp:157] Top shape: 1 512 38 63 (1225728)
I0416 14:30:33.500342 30715 net.cpp:165] Memory required for data: 1360902996
I0416 14:30:33.500344 30715 layer_factory.hpp:77] Creating layer conv5_1
I0416 14:30:33.500350 30715 net.cpp:100] Creating Layer conv5_1
I0416 14:30:33.500352 30715 net.cpp:444] conv5_1 <- pool4
I0416 14:30:33.500367 30715 net.cpp:418] conv5_1 -> conv5_1
I0416 14:30:33.507051 30715 net.cpp:150] Setting up conv5_1
I0416 14:30:33.507071 30715 net.cpp:157] Top shape: 1 512 38 63 (1225728)
I0416 14:30:33.507074 30715 net.cpp:165] Memory required for data: 1365805908
I0416 14:30:33.507081 30715 layer_factory.hpp:77] Creating layer relu5_1
I0416 14:30:33.507088 30715 net.cpp:100] Creating Layer relu5_1
I0416 14:30:33.507091 30715 net.cpp:444] relu5_1 <- conv5_1
I0416 14:30:33.507095 30715 net.cpp:405] relu5_1 -> conv5_1 (in-place)
I0416 14:30:33.509196 30715 net.cpp:150] Setting up relu5_1
I0416 14:30:33.509202 30715 net.cpp:157] Top shape: 1 512 38 63 (1225728)
I0416 14:30:33.509218 30715 net.cpp:165] Memory required for data: 1370708820
I0416 14:30:33.509220 30715 layer_factory.hpp:77] Creating layer conv5_2
I0416 14:30:33.509227 30715 net.cpp:100] Creating Layer conv5_2
I0416 14:30:33.509228 30715 net.cpp:444] conv5_2 <- conv5_1
I0416 14:30:33.509232 30715 net.cpp:418] conv5_2 -> conv5_2
I0416 14:30:33.514482 30715 net.cpp:150] Setting up conv5_2
I0416 14:30:33.514503 30715 net.cpp:157] Top shape: 1 512 38 63 (1225728)
I0416 14:30:33.514505 30715 net.cpp:165] Memory required for data: 1375611732
I0416 14:30:33.514513 30715 layer_factory.hpp:77] Creating layer relu5_2
I0416 14:30:33.514519 30715 net.cpp:100] Creating Layer relu5_2
I0416 14:30:33.514523 30715 net.cpp:444] relu5_2 <- conv5_2
I0416 14:30:33.514526 30715 net.cpp:405] relu5_2 -> conv5_2 (in-place)
I0416 14:30:33.514658 30715 net.cpp:150] Setting up relu5_2
I0416 14:30:33.514664 30715 net.cpp:157] Top shape: 1 512 38 63 (1225728)
I0416 14:30:33.514681 30715 net.cpp:165] Memory required for data: 1380514644
I0416 14:30:33.514683 30715 layer_factory.hpp:77] Creating layer conv5_3
I0416 14:30:33.514691 30715 net.cpp:100] Creating Layer conv5_3
I0416 14:30:33.514693 30715 net.cpp:444] conv5_3 <- conv5_2
I0416 14:30:33.514698 30715 net.cpp:418] conv5_3 -> conv5_3
I0416 14:30:33.518712 30715 net.cpp:150] Setting up conv5_3
I0416 14:30:33.518731 30715 net.cpp:157] Top shape: 1 512 38 63 (1225728)
I0416 14:30:33.518733 30715 net.cpp:165] Memory required for data: 1385417556
I0416 14:30:33.518740 30715 layer_factory.hpp:77] Creating layer relu5_3
I0416 14:30:33.518748 30715 net.cpp:100] Creating Layer relu5_3
I0416 14:30:33.518750 30715 net.cpp:444] relu5_3 <- conv5_3
I0416 14:30:33.518754 30715 net.cpp:405] relu5_3 -> conv5_3 (in-place)
I0416 14:30:33.518885 30715 net.cpp:150] Setting up relu5_3
I0416 14:30:33.518892 30715 net.cpp:157] Top shape: 1 512 38 63 (1225728)
I0416 14:30:33.518908 30715 net.cpp:165] Memory required for data: 1390320468
I0416 14:30:33.518909 30715 layer_factory.hpp:77] Creating layer conv5_3_relu5_3_0_split
I0416 14:30:33.518913 30715 net.cpp:100] Creating Layer conv5_3_relu5_3_0_split
I0416 14:30:33.518915 30715 net.cpp:444] conv5_3_relu5_3_0_split <- conv5_3
I0416 14:30:33.518919 30715 net.cpp:418] conv5_3_relu5_3_0_split -> conv5_3_relu5_3_0_split_0
I0416 14:30:33.518923 30715 net.cpp:418] conv5_3_relu5_3_0_split -> conv5_3_relu5_3_0_split_1
I0416 14:30:33.518952 30715 net.cpp:150] Setting up conv5_3_relu5_3_0_split
I0416 14:30:33.518956 30715 net.cpp:157] Top shape: 1 512 38 63 (1225728)
I0416 14:30:33.518959 30715 net.cpp:157] Top shape: 1 512 38 63 (1225728)
I0416 14:30:33.518961 30715 net.cpp:165] Memory required for data: 1400126292
I0416 14:30:33.518975 30715 layer_factory.hpp:77] Creating layer rpn_conv/3x3
I0416 14:30:33.518982 30715 net.cpp:100] Creating Layer rpn_conv/3x3
I0416 14:30:33.518999 30715 net.cpp:444] rpn_conv/3x3 <- conv5_3_relu5_3_0_split_0
I0416 14:30:33.519003 30715 net.cpp:418] rpn_conv/3x3 -> rpn/output
I0416 14:30:33.573611 30715 net.cpp:150] Setting up rpn_conv/3x3
I0416 14:30:33.573631 30715 net.cpp:157] Top shape: 1 512 38 63 (1225728)
I0416 14:30:33.573633 30715 net.cpp:165] Memory required for data: 1405029204
I0416 14:30:33.573640 30715 layer_factory.hpp:77] Creating layer rpn_relu/3x3
I0416 14:30:33.573647 30715 net.cpp:100] Creating Layer rpn_relu/3x3
I0416 14:30:33.573649 30715 net.cpp:444] rpn_relu/3x3 <- rpn/output
I0416 14:30:33.573653 30715 net.cpp:405] rpn_relu/3x3 -> rpn/output (in-place)
I0416 14:30:33.575573 30715 net.cpp:150] Setting up rpn_relu/3x3
I0416 14:30:33.575580 30715 net.cpp:157] Top shape: 1 512 38 63 (1225728)
I0416 14:30:33.575582 30715 net.cpp:165] Memory required for data: 1409932116
I0416 14:30:33.575584 30715 layer_factory.hpp:77] Creating layer rpn/output_rpn_relu/3x3_0_split
I0416 14:30:33.575588 30715 net.cpp:100] Creating Layer rpn/output_rpn_relu/3x3_0_split
I0416 14:30:33.575590 30715 net.cpp:444] rpn/output_rpn_relu/3x3_0_split <- rpn/output
I0416 14:30:33.575593 30715 net.cpp:418] rpn/output_rpn_relu/3x3_0_split -> rpn/output_rpn_relu/3x3_0_split_0
I0416 14:30:33.575598 30715 net.cpp:418] rpn/output_rpn_relu/3x3_0_split -> rpn/output_rpn_relu/3x3_0_split_1
I0416 14:30:33.575636 30715 net.cpp:150] Setting up rpn/output_rpn_relu/3x3_0_split
I0416 14:30:33.575641 30715 net.cpp:157] Top shape: 1 512 38 63 (1225728)
I0416 14:30:33.575644 30715 net.cpp:157] Top shape: 1 512 38 63 (1225728)
I0416 14:30:33.575645 30715 net.cpp:165] Memory required for data: 1419737940
I0416 14:30:33.575647 30715 layer_factory.hpp:77] Creating layer rpn_cls_score
I0416 14:30:33.575654 30715 net.cpp:100] Creating Layer rpn_cls_score
I0416 14:30:33.575656 30715 net.cpp:444] rpn_cls_score <- rpn/output_rpn_relu/3x3_0_split_0
I0416 14:30:33.575660 30715 net.cpp:418] rpn_cls_score -> rpn_cls_score
I0416 14:30:33.582542 30715 net.cpp:150] Setting up rpn_cls_score
I0416 14:30:33.582551 30715 net.cpp:157] Top shape: 1 18 38 63 (43092)
I0416 14:30:33.582553 30715 net.cpp:165] Memory required for data: 1419910308
I0416 14:30:33.582558 30715 layer_factory.hpp:77] Creating layer rpn_cls_score_rpn_cls_score_0_split
I0416 14:30:33.582562 30715 net.cpp:100] Creating Layer rpn_cls_score_rpn_cls_score_0_split
I0416 14:30:33.582566 30715 net.cpp:444] rpn_cls_score_rpn_cls_score_0_split <- rpn_cls_score
I0416 14:30:33.582568 30715 net.cpp:418] rpn_cls_score_rpn_cls_score_0_split -> rpn_cls_score_rpn_cls_score_0_split_0
I0416 14:30:33.582574 30715 net.cpp:418] rpn_cls_score_rpn_cls_score_0_split -> rpn_cls_score_rpn_cls_score_0_split_1
I0416 14:30:33.582614 30715 net.cpp:150] Setting up rpn_cls_score_rpn_cls_score_0_split
I0416 14:30:33.582619 30715 net.cpp:157] Top shape: 1 18 38 63 (43092)
I0416 14:30:33.582623 30715 net.cpp:157] Top shape: 1 18 38 63 (43092)
I0416 14:30:33.582624 30715 net.cpp:165] Memory required for data: 1420255044
I0416 14:30:33.582638 30715 layer_factory.hpp:77] Creating layer rpn_bbox_pred
I0416 14:30:33.582644 30715 net.cpp:100] Creating Layer rpn_bbox_pred
I0416 14:30:33.582646 30715 net.cpp:444] rpn_bbox_pred <- rpn/output_rpn_relu/3x3_0_split_1
I0416 14:30:33.582664 30715 net.cpp:418] rpn_bbox_pred -> rpn_bbox_pred
I0416 14:30:33.589066 30715 net.cpp:150] Setting up rpn_bbox_pred
I0416 14:30:33.589074 30715 net.cpp:157] Top shape: 1 36 38 63 (86184)
I0416 14:30:33.589076 30715 net.cpp:165] Memory required for data: 1420599780
I0416 14:30:33.589081 30715 layer_factory.hpp:77] Creating layer rpn_bbox_pred_rpn_bbox_pred_0_split
I0416 14:30:33.589085 30715 net.cpp:100] Creating Layer rpn_bbox_pred_rpn_bbox_pred_0_split
I0416 14:30:33.589088 30715 net.cpp:444] rpn_bbox_pred_rpn_bbox_pred_0_split <- rpn_bbox_pred
I0416 14:30:33.589092 30715 net.cpp:418] rpn_bbox_pred_rpn_bbox_pred_0_split -> rpn_bbox_pred_rpn_bbox_pred_0_split_0
I0416 14:30:33.589095 30715 net.cpp:418] rpn_bbox_pred_rpn_bbox_pred_0_split -> rpn_bbox_pred_rpn_bbox_pred_0_split_1
I0416 14:30:33.589133 30715 net.cpp:150] Setting up rpn_bbox_pred_rpn_bbox_pred_0_split
I0416 14:30:33.589138 30715 net.cpp:157] Top shape: 1 36 38 63 (86184)
I0416 14:30:33.589140 30715 net.cpp:157] Top shape: 1 36 38 63 (86184)
I0416 14:30:33.589143 30715 net.cpp:165] Memory required for data: 1421289252
I0416 14:30:33.589144 30715 layer_factory.hpp:77] Creating layer rpn_cls_score_reshape
I0416 14:30:33.589154 30715 net.cpp:100] Creating Layer rpn_cls_score_reshape
I0416 14:30:33.589156 30715 net.cpp:444] rpn_cls_score_reshape <- rpn_cls_score_rpn_cls_score_0_split_0
I0416 14:30:33.589160 30715 net.cpp:418] rpn_cls_score_reshape -> rpn_cls_score_reshape
I0416 14:30:33.589176 30715 net.cpp:150] Setting up rpn_cls_score_reshape
I0416 14:30:33.589180 30715 net.cpp:157] Top shape: 1 2 342 63 (43092)
I0416 14:30:33.589182 30715 net.cpp:165] Memory required for data: 1421461620
I0416 14:30:33.589184 30715 layer_factory.hpp:77] Creating layer rpn_cls_score_reshape_rpn_cls_score_reshape_0_split
I0416 14:30:33.589200 30715 net.cpp:100] Creating Layer rpn_cls_score_reshape_rpn_cls_score_reshape_0_split
I0416 14:30:33.589202 30715 net.cpp:444] rpn_cls_score_reshape_rpn_cls_score_reshape_0_split <- rpn_cls_score_reshape
I0416 14:30:33.589205 30715 net.cpp:418] rpn_cls_score_reshape_rpn_cls_score_reshape_0_split -> rpn_cls_score_reshape_rpn_cls_score_reshape_0_split_0
I0416 14:30:33.589223 30715 net.cpp:418] rpn_cls_score_reshape_rpn_cls_score_reshape_0_split -> rpn_cls_score_reshape_rpn_cls_score_reshape_0_split_1
I0416 14:30:33.589244 30715 net.cpp:150] Setting up rpn_cls_score_reshape_rpn_cls_score_reshape_0_split
I0416 14:30:33.589247 30715 net.cpp:157] Top shape: 1 2 342 63 (43092)
I0416 14:30:33.589251 30715 net.cpp:157] Top shape: 1 2 342 63 (43092)
I0416 14:30:33.589251 30715 net.cpp:165] Memory required for data: 1421806356
I0416 14:30:33.589253 30715 layer_factory.hpp:77] Creating layer rpn-data
I0416 14:30:33.589582 30715 net.cpp:100] Creating Layer rpn-data
I0416 14:30:33.589591 30715 net.cpp:444] rpn-data <- rpn_cls_score_rpn_cls_score_0_split_1
I0416 14:30:33.589594 30715 net.cpp:444] rpn-data <- gt_boxes_input-data_2_split_0
I0416 14:30:33.589597 30715 net.cpp:444] rpn-data <- im_info_input-data_1_split_0
I0416 14:30:33.589601 30715 net.cpp:444] rpn-data <- data_input-data_0_split_1
I0416 14:30:33.589604 30715 net.cpp:418] rpn-data -> rpn_labels
I0416 14:30:33.589609 30715 net.cpp:418] rpn-data -> rpn_bbox_targets
I0416 14:30:33.589613 30715 net.cpp:418] rpn-data -> rpn_bbox_inside_weights
I0416 14:30:33.589617 30715 net.cpp:418] rpn-data -> rpn_bbox_outside_weights
I0416 14:30:33.590118 30715 net.cpp:150] Setting up rpn-data
I0416 14:30:33.590128 30715 net.cpp:157] Top shape: 1 1 342 63 (21546)
I0416 14:30:33.590133 30715 net.cpp:157] Top shape: 1 36 38 63 (86184)
I0416 14:30:33.590136 30715 net.cpp:157] Top shape: 1 36 38 63 (86184)
I0416 14:30:33.590137 30715 net.cpp:157] Top shape: 1 36 38 63 (86184)
I0416 14:30:33.590139 30715 net.cpp:165] Memory required for data: 1422926748
I0416 14:30:33.590142 30715 layer_factory.hpp:77] Creating layer rpn_loss_cls
I0416 14:30:33.590152 30715 net.cpp:100] Creating Layer rpn_loss_cls
I0416 14:30:33.590155 30715 net.cpp:444] rpn_loss_cls <- rpn_cls_score_reshape_rpn_cls_score_reshape_0_split_0
I0416 14:30:33.590163 30715 net.cpp:444] rpn_loss_cls <- rpn_labels
…
I0416 14:30:33.591783 30715 net.cpp:157] Top shape: (1)
I0416 14:30:33.591784 30715 net.cpp:160]     with loss weight 1
I0416 14:30:33.591787 30715 net.cpp:165] Memory required for data: 1422926756
I0416 14:30:33.591789 30715 layer_factory.hpp:77] Creating layer rpn_cls_prob
I0416 14:30:33.591794 30715 net.cpp:100] Creating Layer rpn_cls_prob
I0416 14:30:33.591795 30715 net.cpp:444] rpn_cls_prob <- rpn_cls_score_reshape_rpn_cls_score_reshape_0_split_1
I0416 14:30:33.591799 30715 net.cpp:418] rpn_cls_prob -> rpn_cls_prob
I0416 14:30:33.593526 30715 net.cpp:150] Setting up rpn_cls_prob
I0416 14:30:33.593535 30715 net.cpp:157] Top shape: 1 2 342 63 (43092)
I0416 14:30:33.593538 30715 net.cpp:165] Memory required for data: 1423099124
I0416 14:30:33.593539 30715 layer_factory.hpp:77] Creating layer rpn_cls_prob_reshape
I0416 14:30:33.593544 30715 net.cpp:100] Creating Layer rpn_cls_prob_reshape
I0416 14:30:33.593546 30715 net.cpp:444] rpn_cls_prob_reshape <- rpn_cls_prob
I0416 14:30:33.593551 30715 net.cpp:418] rpn_cls_prob_reshape -> rpn_cls_prob_reshape
I0416 14:30:33.593582 30715 net.cpp:150] Setting up rpn_cls_prob_reshape
I0416 14:30:33.593586 30715 net.cpp:157] Top shape: 1 18 38 63 (43092)
I0416 14:30:33.593588 30715 net.cpp:165] Memory required for data: 1423271492
I0416 14:30:33.593590 30715 layer_factory.hpp:77] Creating layer proposal
I0416 14:30:33.594120 30715 net.cpp:100] Creating Layer proposal
I0416 14:30:33.594127 30715 net.cpp:444] proposal <- rpn_cls_prob_reshape
I0416 14:30:33.594143 30715 net.cpp:444] proposal <- rpn_bbox_pred_rpn_bbox_pred_0_split_1
I0416 14:30:33.594146 30715 net.cpp:444] proposal <- im_info_input-data_1_split_1
I0416 14:30:33.594175 30715 net.cpp:418] proposal -> rpn_rois
I0416 14:30:33.594671 30715 net.cpp:150] Setting up proposal
I0416 14:30:33.594681 30715 net.cpp:157] Top shape: 1 5 (5)
I0416 14:30:33.594682 30715 net.cpp:165] Memory required for data: 1423271512
I0416 14:30:33.594686 30715 layer_factory.hpp:77] Creating layer roi-data
I0416 14:30:33.594830 30715 net.cpp:100] Creating Layer roi-data
I0416 14:30:33.594836 30715 net.cpp:444] roi-data <- rpn_rois
I0416 14:30:33.594854 30715 net.cpp:444] roi-data <- gt_boxes_input-data_2_split_1
I0416 14:30:33.594858 30715 net.cpp:418] roi-data -> rois
I0416 14:30:33.594863 30715 net.cpp:418] roi-data -> labels
I0416 14:30:33.594867 30715 net.cpp:418] roi-data -> bbox_targets
I0416 14:30:33.594871 30715 net.cpp:418] roi-data -> bbox_inside_weights
I0416 14:30:33.594876 30715 net.cpp:418] roi-data -> bbox_outside_weights
I0416 14:30:33.595191 30715 net.cpp:150] Setting up roi-data
I0416 14:30:33.595197 30715 net.cpp:157] Top shape: 1 5 (5)
I0416 14:30:33.595201 30715 net.cpp:157] Top shape: 1 1 (1)
I0416 14:30:33.595202 30715 net.cpp:157] Top shape: 1 24 (24)
I0416 14:30:33.595204 30715 net.cpp:157] Top shape: 1 24 (24)
I0416 14:30:33.595207 30715 net.cpp:157] Top shape: 1 24 (24)
I0416 14:30:33.595208 30715 net.cpp:165] Memory required for data: 1423271824
I0416 14:30:33.595211 30715 layer_factory.hpp:77] Creating layer roi_pool5
I0416 14:30:33.595216 30715 net.cpp:100] Creating Layer roi_pool5
I0416 14:30:33.595218 30715 net.cpp:444] roi_pool5 <- conv5_3_relu5_3_0_split_1
I0416 14:30:33.595221 30715 net.cpp:444] roi_pool5 <- rois
I0416 14:30:33.595224 30715 net.cpp:418] roi_pool5 -> pool5
I0416 14:30:33.595229 30715 roi_pooling_layer.cpp:25] Spatial scale: 0.0625
I0416 14:30:33.595269 30715 net.cpp:150] Setting up roi_pool5
I0416 14:30:33.595286 30715 net.cpp:157] Top shape: 1 512 7 7 (25088)
I0416 14:30:33.595288 30715 net.cpp:165] Memory required for data: 1423372176
I0416 14:30:33.595290 30715 layer_factory.hpp:77] Creating layer fc6
I0416 14:30:33.595309 30715 net.cpp:100] Creating Layer fc6
I0416 14:30:33.595310 30715 net.cpp:444] fc6 <- pool5
I0416 14:30:33.595314 30715 net.cpp:418] fc6 -> fc6
I0416 14:30:33.729362 30715 net.cpp:150] Setting up fc6
I0416 14:30:33.729399 30715 net.cpp:157] Top shape: 1 4096 (4096)
I0416 14:30:33.729403 30715 net.cpp:165] Memory required for data: 1423388560
I0416 14:30:33.729413 30715 layer_factory.hpp:77] Creating layer relu6
I0416 14:30:33.729419 30715 net.cpp:100] Creating Layer relu6
I0416 14:30:33.729423 30715 net.cpp:444] relu6 <- fc6
I0416 14:30:33.729427 30715 net.cpp:405] relu6 -> fc6 (in-place)
I0416 14:30:33.729596 30715 net.cpp:150] Setting up relu6
I0416 14:30:33.729605 30715 net.cpp:157] Top shape: 1 4096 (4096)
I0416 14:30:33.729607 30715 net.cpp:165] Memory required for data: 1423404944
I0416 14:30:33.729609 30715 layer_factory.hpp:77] Creating layer drop6
I0416 14:30:33.729614 30715 net.cpp:100] Creating Layer drop6
I0416 14:30:33.729616 30715 net.cpp:444] drop6 <- fc6
I0416 14:30:33.729621 30715 net.cpp:405] drop6 -> fc6 (in-place)
I0416 14:30:33.729641 30715 net.cpp:150] Setting up drop6
I0416 14:30:33.729647 30715 net.cpp:157] Top shape: 1 4096 (4096)
I0416 14:30:33.729650 30715 net.cpp:165] Memory required for data: 1423421328
I0416 14:30:33.729651 30715 layer_factory.hpp:77] Creating layer fc7
I0416 14:30:33.729655 30715 net.cpp:100] Creating Layer fc7
I0416 14:30:33.729657 30715 net.cpp:444] fc7 <- fc6
I0416 14:30:33.729660 30715 net.cpp:418] fc7 -> fc7
I0416 14:30:33.751214 30715 net.cpp:150] Setting up fc7
I0416 14:30:33.751255 30715 net.cpp:157] Top shape: 1 4096 (4096)
I0416 14:30:33.751258 30715 net.cpp:165] Memory required for data: 1423437712
I0416 14:30:33.751266 30715 layer_factory.hpp:77] Creating layer relu7
I0416 14:30:33.751272 30715 net.cpp:100] Creating Layer relu7
I0416 14:30:33.751276 30715 net.cpp:444] relu7 <- fc7
I0416 14:30:33.751281 30715 net.cpp:405] relu7 -> fc7 (in-place)
I0416 14:30:33.751442 30715 net.cpp:150] Setting up relu7
I0416 14:30:33.751451 30715 net.cpp:157] Top shape: 1 4096 (4096)
I0416 14:30:33.751452 30715 net.cpp:165] Memory required for data: 1423454096
I0416 14:30:33.751454 30715 layer_factory.hpp:77] Creating layer drop7
I0416 14:30:33.751459 30715 net.cpp:100] Creating Layer drop7
I0416 14:30:33.751461 30715 net.cpp:444] drop7 <- fc7
I0416 14:30:33.751466 30715 net.cpp:405] drop7 -> fc7 (in-place)
I0416 14:30:33.751484 30715 net.cpp:150] Setting up drop7
I0416 14:30:33.751489 30715 net.cpp:157] Top shape: 1 4096 (4096)
I0416 14:30:33.751492 30715 net.cpp:165] Memory required for data: 1423470480
I0416 14:30:33.751493 30715 layer_factory.hpp:77] Creating layer fc7_drop7_0_split
I0416 14:30:33.751497 30715 net.cpp:100] Creating Layer fc7_drop7_0_split
I0416 14:30:33.751499 30715 net.cpp:444] fc7_drop7_0_split <- fc7
I0416 14:30:33.751502 30715 net.cpp:418] fc7_drop7_0_split -> fc7_drop7_0_split_0
I0416 14:30:33.751507 30715 net.cpp:418] fc7_drop7_0_split -> fc7_drop7_0_split_1
I0416 14:30:33.751529 30715 net.cpp:150] Setting up fc7_drop7_0_split
I0416 14:30:33.751534 30715 net.cpp:157] Top shape: 1 4096 (4096)
I0416 14:30:33.751538 30715 net.cpp:157] Top shape: 1 4096 (4096)
I0416 14:30:33.751538 30715 net.cpp:165] Memory required for data: 1423503248
I0416 14:30:33.751540 30715 layer_factory.hpp:77] Creating layer my_cls_score
I0416 14:30:33.751546 30715 net.cpp:100] Creating Layer my_cls_score
I0416 14:30:33.751549 30715 net.cpp:444] my_cls_score <- fc7_drop7_0_split_0
I0416 14:30:33.751552 30715 net.cpp:418] my_cls_score -> my_cls_score
I0416 14:30:33.752162 30715 net.cpp:150] Setting up my_cls_score
I0416 14:30:33.752167 30715 net.cpp:157] Top shape: 1 6 (6)
I0416 14:30:33.752183 30715 net.cpp:165] Memory required for data: 1423503272
I0416 14:30:33.752187 30715 layer_factory.hpp:77] Creating layer my_bbox_pred
I0416 14:30:33.752192 30715 net.cpp:100] Creating Layer my_bbox_pred
I0416 14:30:33.752194 30715 net.cpp:444] my_bbox_pred <- fc7_drop7_0_split_1
I0416 14:30:33.752199 30715 net.cpp:418] my_bbox_pred -> my_bbox_pred
I0416 14:30:33.754339 30715 net.cpp:150] Setting up my_bbox_pred
I0416 14:30:33.754345 30715 net.cpp:157] Top shape: 1 24 (24)
I0416 14:30:33.754361 30715 net.cpp:165] Memory required for data: 1423503368
I0416 14:30:33.754365 30715 layer_factory.hpp:77] Creating layer loss_cls
I0416 14:30:33.754370 30715 net.cpp:100] Creating Layer loss_cls
I0416 14:30:33.754374 30715 net.cpp:444] loss_cls <- my_cls_score
I0416 14:30:33.754376 30715 net.cpp:444] loss_cls <- labels
I0416 14:30:33.754379 30715 net.cpp:418] loss_cls -> loss_cls
…
